policy.pt (torch, 277257 bytes, 6 tensors)

encoder.0.weight f4 [256, 5]
000000 2d 54 51 3e c0 0a 96 be f0 9b 24 3e 97 e5 d7 be
       0.20442267 -0.29305077 0.1607511 -0.4216735
000010 ec 8e b2 be e0 e0 b1 bd 58 54 1c be 80 cf 5b bc
       -0.34874666 -0.086854696 -0.1526655 -0.013416171
000020 64 b9 22 be 3a bb b6 be 02 ea 46 3d 32 c7 c4 3e
       -0.15891033 -0.35689718 0.04856301 0.38433224
000030 54 4f 89 3e fd 33 af 3e 01 ea b2 3c ad ab cb bc
       0.26818335 0.3421935 0.021840097 -0.024862135
000040 fb a3 94 3e ad 08 92 be 41 d9 3c 3e 61 71 5f 3e
       0.29031357 -0.28522244 0.18442251 0.21820594
000050 a8 06 e6 bd 33 c7 78 be 1c 05 b9 3e 88 80 fc 3d
       -0.11231738 -0.24294738 0.3613671 0.12329203
000060 44 bf 91 be 1f 2f 10 bd 13 71 98 3e 74 fc e5 3c
       -0.28466237 -0.03520119 0.2977377 0.02807448
000070 a8 1c b3 bd cc 36 b1 3c f5 06 0b bc b9 1d bf be
       -0.087457 0.021632574 -0.008485545 -0.37327364
000080 9b 4b b6 3e 08 ab 79 bd a5 60 e7 3e 34 e3 73 be
       0.35604557 -0.060954124 0.4519092 -0.2381714
000090 5d a6 fc bd 90 bc c6 be fd a2 88 bd 21 00 bf 3e
       -0.12336419 -0.38815737 -0.066717125 0.37304786
0000a0 64 be 64 3e 4a b6 32 3e 8d 5e bc 3e 9e fc 90 be
       0.22338253 0.1745235 0.36790887 -0.28317732
0000b0 ae fb c4 3d 1d 60 48 be a2 a7 29 3c 9e 9d e1 3e
       0.096183166 -0.19567914 0.010354908 0.44065565
0000c0 d6 e2 d7 3c d2 68 c2 3e 76 5f 43 3e 21 c0 cd be
       0.026353281 0.37970597 0.19079384 -0.40185645
0000d0 53 3f be 3e 29 f0 d3 3d aa 68 3d 3e 51 d8 80 be
       0.37157688 0.10348541 0.18496957 -0.25165036
0000e0 d7 90 68 3e 94 f6 b1 be f3 55 ba 3b 03 62 d8 be
       0.22711502 -0.34758437 0.0056865155 -0.42262277
0000f0 1c 7e 46 be 80 c5 9b bd 1e c8 b7 3e 1e d2 e1 3e
       -0.19384044 -0.076060295 0.35894865 0.4410562
000100 0e 06 2b be 04 d4 9d be ff 91 96 3e 3a 04 34 be
       -0.16701528 -0.30825818 0.2940826 -0.17579737
000110 c8 8f 9f be 65 e6 2b 3d f8 f6 b9 3d 50 b7 e8 bd
       -0.31164384 0.04196777 0.09080309 -0.11363089
000120 5c 44 d0 3e ec 1f 1b be 80 9e 28 bd 4e b2 4a 3d
       0.40677154 -0.15148896 -0.041166782 0.04948645
000130 a2 01 7e be 5e fe 91 3e d1 e6 b9 be be 21 8f 3e
       -0.2480531 0.2851438 -0.3630891 0.2795543
000140 ef a1 8e bc 82 a7 bb 3e 84 ad bd 3e 36 76 c0 be
       -0.0174112 0.36651236 0.37046444 -0.37590188
000150 8e 64 a5 3e de 04 0a 3d 17 b7 14 bd 65 a9 3c 3d
       0.3230328 0.033696048 -0.03630742 0.046059985
000160 d2 97 5f 3e df 7d ee 3d 63 17 a8 be 6c 4b 75 3d
       0.21835259 0.11645102 -0.32830343 0.05988638
000170 04 66 d5 be 17 84 6b bd 4a c3 c5 3e 70 de 35 be
       -0.41679394 -0.057499018 0.38625556 -0.17760634
000180 20 1b 88 be 4d c6 a7 be 02 ff 9a 3e 9e 7d c8 3e
       -0.26583195 -0.3276848 0.3027268 0.39158338
000190 f1 74 35 3e 8f b4 ab bc 50 99 3c bd 94 34 ab be
       0.17720391 -0.02096012 -0.046044648 -0.3343855
0001a0 92 d6 88 3e 8e 6e b4 be 1b 79 5a 3e 19 6d 91 3e
       0.26726204 -0.35240597 0.2133526 0.28403547
0001b0 0b c6 03 3e 1a eb b0 be eb 9a 91 3e 54 df 6a be
       0.12868516 -0.34554368 0.28438506 -0.22936755
0001c0 82 6d c1 bd 91 b7 af be e7 51 41 3e 13 dd 42 be
       -0.09444715 -0.34319738 0.188789 -0.19029646
0001d0 6a 89 e2 be a3 52 06 be 67 5b 76 3e 0a e7 97 3e
       -0.44245464 -0.13117461 0.24058305 0.29668456
0001e0 54 51 1e 3d 94 f9 8d 3d df ed 2e be 71 7a c9 bb
       0.03865178 0.06932369 -0.17082928 -0.0061486294
0001f0 16 d7 4e 3e 78 8e dc be 99 bc af be 45 7b 2d 3e
       0.20199236 -0.43077445 -0.34323576 0.16941555
000200 c2 04 b0 3e 5f d8 07 3e df dc b1 be 0a 70 80 be
       0.3437863 0.13266133 -0.34738824 -0.2508548
000210 9e 56 af 3b fb a4 82 3e 0f 75 a7 3e 38 c3 c6 bc
       0.0053509017 0.25516495 0.32706496 -0.02426301
000220 2e 7b 06 bd 1f 64 db bd c7 ab 82 3e e9 cb b4 be
       -0.032832317 -0.10712456 0.2552168 -0.3531182
000230 b2 48 a7 3e 9a d3 6c be d6 f9 e2 3e 30 d3 dc 3d
       0.3267265 -0.23127595 0.44331235 0.10782468
000240 1c 54 8b be a9 68 11 3e aa a1 d2 bc 94 82 67 3e
       -0.27212608 0.14200081 -0.025711853 0.22608405
000250 d2 ce ba be f2 2c 72 be 47 2a 2f be f9 f4 ac be
       -0.36485916 -0.23649958 -0.17105971 -0.3378065
000260 00 51 c1 be 06 55 9f 3e 25 ae 71 be a4 af a9 be
       -0.3775711 0.31119555 -0.23601587 -0.33141816
000270 a8 d7 d7 bd 56 02 d6 3e 3a 8f bc 3e c8 87 8a be
       -0.1053918 0.41798657 0.36828023 -0.27056718
000280 98 92 a3 be f3 f2 2a be 7d 8d 63 bc 0a 7c 41 ba
       -0.3194778 -0.1669424 -0.013888714 -0.0007380849
000290 19 df 02 bc 68 e5 cc 3e a8 ed 89 3e db cb ba be
       -0.007987761 0.40018773 0.2693913 -0.36483654
0002a0 ce 7d c4 3e 8b 56 e4 3e 50 11 a3 bd 2c 45 c0 be
       0.3837723 0.44597277 -0.079622865 -0.37552774
0002b0 5a 2a e4 3e 3f a1 d4 be cc 47 41 be 50 7e 12 be
       0.44563562 -0.4152927 -0.18875045 -0.14305997
0002c0 dc ac 71 3e 7a 3d 26 be c4 2f 6f 3e b0 5e 94 be
       0.23601097 -0.16234389 0.23358065 -0.2897849
0002d0 dc 30 88 3e 8c 45 62 3e 3b e1 9e be d6 f3 8e 3e
       0.26599777 0.22096843 -0.31031212 0.27920407
0002e0 68 ea 06 be 36 3a 80 3e 80 1a d6 bb ac b0 05 be
       -0.13175356 0.2504441 -0.0065339208 -0.13055676
0002f0 28 34 cf 3d 85 84 d8 be 6f 70 0c be 9a b5 cc be
       0.1011737 -0.42288604 -0.13714765 -0.399823
000300 67 fa 8f be c9 39 9d be aa 6d a1 be 53 0f b3 be
       -0.2812073 -0.3070815 -0.3152898 -0.3497263
000310 22 d3 89 be 5b 09 bf be 1c 3f 6a 3e 30 5f 8d bc
       -0.26918894 -0.37311825 0.22875637 -0.017257303
000320 62 0c dd bd 87 f6 4f be 98 3f fe bd 01 48 ed 3b
       -0.107933775 -0.20308886 -0.12414473 0.0072412496
000330 1b dc 14 3e d1 3f 83 bc f3 ad 4f be eb c3 e0 3e
       0.14537089 -0.016021641 -0.202812 0.43899474
000340 3d 11 bc 3e d0 42 88 be 9c 6a 26 3e 16 82 b3 3e
       0.36731902 -0.26613474 0.16251606 0.35060185
000350 b3 49 64 be 85 a2 09 be 58 d6 1d 3e a2 54 db be
       -0.22293739 -0.13440903 0.15413797 -0.42838007
000360 4a 9d ca 3e 4d 4d 50 be 80 09 c9 be 18 5d 75 3d
       0.39573127 -0.20341988 -0.3926506 0.059903234
000370 7d e0 94 3e 10 0b be bd 0f fc b9 be 2c a6 a8 3e
       0.2907752 -0.09279454 -0.36325118 0.3293928
000380 b5 d9 cd bd 40 de 3c 3e aa a0 aa 3d aa 4c cb 3e
       -0.1005129 0.18444157 0.083314255 0.39706928
000390 42 f4 a4 3d 5f ff c9 3d a8 55 d0 be ce cf 9a be
       0.08054401 0.09863161 -0.4069035 -0.30236667
0003a0 db 39 d0 3e 18 97 a6 3e 14 89 df 3e a9 af 6d be
       0.4066914 0.3253715 0.4365927 -0.2321154
0003b0 d1 17 f9 bd c9 6a 29 be 42 e8 ba bd 32 92 d7 be
       -0.12162746 -0.16544642 -0.09126331 -0.42103726
0003c0 8f 74 9f 3d be fb bd be a1 a5 d7 3e 05 b5 9c 3e
       0.07785904 -0.37106127 0.42118552 0.30606857
0003d0 ac 13 a9 3e 16 fc 51 3e f8 9c 0b 3d da 85 c0 be
       0.3302282 0.2050632 0.034085244 -0.3760212
0003e0 a6 9b 9c be a4 4d c3 3e 7b 3d 46 be eb 9f d7 be
       -0.305875 0.38145173 -0.1935939 -0.42114195
0003f0 08 c5 cf be b4 71 ba be e3 65 ce 3e b9 ca e1 3d
       -0.4058001 -0.36414874 0.40312108 0.110249944

encoder.0.bias f4 [256]
000000 1b d8 46 3c aa fc df be d4 a0 7a be aa 9d e2 3d
       0.0121364845 -0.43747455 -0.24475414 0.11065228
000010 31 48 52 be 18 41 d0 3e e2 05 b9 3e ab 1a de 3e
       -0.20535351 0.40674663 0.361373 0.4337972
000020 96 80 95 be f7 68 ca be ee 0c a2 3d 4a 89 38 3e
       -0.29199666 -0.39533207 0.079126224 0.18021122
000030 b2 83 d5 be 9c 6e 65 be 45 e6 df be 2b 7d b7 bd
       -0.41702038 -0.22405475 -0.4373037 -0.08959421
000040 37 c0 5b 3d ee 7b b3 bb 00 c9 90 3e 61 b4 23 3e
       0.053650107 -0.00547742 0.2827835 0.15986778
000050 13 6f cc 3d 5c 26 f2 3c c1 88 87 bb bd d8 98 be
       0.09982123 0.029559307 -0.0041361754 -0.29852858
000060 4f 6e 75 3e 49 56 61 3e 28 bf 6f 3e 6c c0 98 3d
       0.2396786 0.22005571 0.23412764 0.074585766
000070 f4 bf 9e be 5b ba 82 3e c8 1d bb 3e 3e 85 86 3c
       -0.31005824 0.25532803 0.3654616 0.016420957
000080 50 6d c7 3e 32 6d d4 be e0 28 1d be c6 f8 d0 be
       0.38950586 -0.4148956 -0.15347624 -0.408148
000090 0c 57 a4 be 5d 7a cb be 28 7a b2 3e bc b1 d8 be
       -0.32097661 -0.39741793 0.34858823 -0.423231
0000a0 2d 31 17 3e 17 19 18 be d0 6f 02 3e 17 c5 e5 be
       0.14764853 -0.14853321 0.12737966 -0.4487693
0000b0 43 63 c3 3e 0b 39 ad 3e 2a e2 13 be 11 32 e7 3e
       0.38161668 0.33832583 -0.14441743 0.45155385
0000c0 e8 33 72 be d6 4c e6 3d f7 09 a0 3d e6 f1 c8 be
       -0.23652613 0.11245124 0.07814401 -0.39247054
0000d0 24 23 f7 bd 8f 5c 6a be f0 8a ce be d0 dc 6a 3e
       -0.120672494 -0.22886871 -0.40340376 0.22935796
0000e0 d4 29 06 3d 95 64 51 3e 74 50 91 3e 38 8a 23 be
       0.032754734 0.20448525 0.28381693 -0.15970695
0000f0 44 52 9f be 4b c9 cc 3e 6b 4e b5 3d 2d 82 bb be
       -0.3111745 0.39997324 0.08852848 -0.36622754
000100 2d b2 a7 bc 79 8b fd 3d f0 6d 1e 3e 33 ec b4 3e
       -0.020470703 0.12380118 0.15471625 0.35336456
000110 23 85 bd 3e 70 aa 61 3e fa 72 86 3e f8 bd c1 3e
       0.37015638 0.22037673 0.26259595 0.37840247
000120 49 c9 d7 3e db c8 76 3c 3c 10 bd be e8 83 eb 3e
       0.42145756 0.015062536 -0.36926448 0.45999074
000130 96 e1 82 3e bc fb df 3e 19 47 ce 3e 12 1d c9 3e
       0.25562733 0.43746746 0.40288618 0.3927999
000140 73 2a 97 be d1 74 9a be ef 90 d7 3e 12 7d b5 3e
       -0.29524574 -0.3016725 0.42102763 0.35446984
000150 0e 68 ed bd 95 2f 9a 3e 48 fe 54 be 7f fb 7e be
       -0.115921125 0.30114427 -0.20800126 -0.24900626
000160 a8 04 0d bc 5b c1 e6 bd b7 d9 9f 3e 8a cd 7f 3e
       -0.008607067 -0.112673484 0.3122079 0.2498075
000170 3b a6 16 be b0 46 d8 be 1b 59 9c be d2 cd e4 be
       -0.1471185 -0.4224143 -0.30536732 -0.44688278
000180 90 d7 df be cc 0f fb 3d 3c 18 b5 3e 4a ff 8b be
       -0.4371915 0.122588724 0.35370052 -0.27343208
000190 5c aa e0 3e 4c ca 83 be 76 81 9d 3e 89 2a bc 3e
       0.43879974 -0.25740278 0.30762833 0.36751202
0001a0 e6 58 59 3d 2f 2e c3 3d 60 a1 fa bc 94 a6 b9 bd
       0.053063296 0.09530293 -0.030594528 -0.090649754
0001b0 25 35 95 3d 46 90 ee bd ef 64 c1 be e0 ad aa bc
       0.07285527 -0.11648612 -0.3777232 -0.020834863
0001c0 b6 4d 53 be 79 19 a0 3d a9 92 da be 50 4b af be
       -0.20635113 0.078173585 -0.42690018 -0.34237146
0001d0 37 00 e4 bc 95 f4 87 be 1a 51 0e be 5a 4d 99 be
       -0.027832134 -0.2655379 -0.13898125 -0.29941827
0001e0 27 fc 07 be dd a6 5a be be 33 32 be 55 48 72 3d
       -0.13279782 -0.21352716 -0.1740255 0.059151012
0001f0 ef 7d 6c 3e eb 22 a7 3e 94 67 c3 bd aa e6 b3 3d
       0.23094915 0.32643828 -0.0954124 0.0878423
000200 9e c6 2b be 70 58 a9 bc ef 25 af be 51 a3 75 be
       -0.16774985 -0.020672053 -0.3420863 -0.23988082
000210 da a4 e6 3d 34 68 c2 3d b4 48 52 3d 35 65 dc be
       0.11261912 0.094925314 0.051338866 -0.43045965
000220 e8 2a fd bd 31 cf c8 3e b9 dd 99 bd dc dc 96 3e
       -0.12361699 0.39220574 -0.07512993 0.29465377
000230 7d c0 cd be 45 d2 b2 3e 45 b5 84 3e ee fe d4 3e
       -0.4018592 0.34926048 0.25919548 0.41600746
000240 2e 7b b5 3e 32 47 ca be 03 f0 2a 3e 22 90 d3 bd
       0.3544554 -0.39507443 0.1669312 -0.103302255
000250 4d 8c 0c be a1 0e ca 3d fb f1 ec 3d b6 bf aa bd
       -0.13725396 0.098660715 0.115695916 -0.08337347
000260 85 50 c7 be 8d 05 97 bc 7e 11 12 3e 5f fa 1b bc
       -0.3892862 -0.018435264 0.14264485 -0.009520142
000270 64 6a 65 3e 5f 26 ac be 71 d7 d7 3e a9 29 21 3e
       0.22403866 -0.33623025 0.42156556 0.15738548
000280 72 58 dd be 57 4a 7b be 8a ce ae 3e d4 2f a1 3d
       -0.4323154 -0.24540077 0.34141952 0.078704506
000290 2e 56 e5 3b c5 9a a4 3e c4 41 8c 3d 0e 2c 88 3e
       0.006998799 0.3214933 0.06848481 0.2659611
0002a0 5f 6e d4 3e 4a 0f 8c 3c af e3 1f 3d 2b 1f 44 3e
       0.41490456 0.017097134 0.039035495 0.19152515
0002b0 18 f4 92 be 3a ad c4 be 6c 3d dc be 7f 97 d4 3e
       -0.28701854 -0.3841341 -0.4301561 0.41521832
0002c0 50 41 a4 3e d4 0e 91 3d 9c 5a e8 bd b2 eb 9f 3e
       0.3208108 0.07082906 -0.11345407 0.3123451
0002d0 bc 86 c9 be df 3d c1 3e 70 34 a3 3d 5e c0 c2 3e
       -0.39360607 0.37742516 0.07968986 0.3803739
0002e0 83 a6 da 3d 26 87 9f be 73 60 ff bd d8 12 7b 3e
       0.10676291 -0.31157798 -0.12469568 0.24518907
0002f0 6d 23 82 bd bf 2c b7 be c2 bc b3 3e 33 2c a5 be
       -0.06354413 -0.35776326 0.35104948 -0.32260284
000300 e7 e6 fb 3c 4b 44 ef 3e 59 ef d1 3d d9 95 ed bd
       0.030749751 0.4673179 0.1025073 -0.11600847
000310 4a aa a7 3e 7a c2 94 be 7d bf c7 be 45 2b 49 be
       0.32747108 -0.29054624 -0.3901328 -0.19645412
000320 80 39 51 3c 5f 7d a9 3e 27 a0 86 be e7 02 a7 be
       0.012770057 0.33103463 -0.26294062 -0.32619402
000330 3d 14 5a be c4 e2 d5 bd 98 85 26 be 4d 50 0c 3e
       -0.21296783 -0.10443643 -0.162619 0.13702507
000340 68 e6 6a 3e 9a e2 a9 be 98 2e 77 bd 6f 01 e7 3e
       0.22939456 -0.33180696 -0.06034717 0.4511828
000350 fa 29 67 3e bd 09 6b 3e 18 51 91 be 3f 3b c1 be
       0.22574607 0.22952934 -0.28382182 -0.37740514
000360 08 0f 5f bd 57 fc a7 3e 97 e8 80 3e c0 d2 3e 3e
       -0.054457694 0.32809708 0.25177452 0.18635082
000370 b5 39 ae be 36 2a 54 3d 0a 71 06 be 6b 00 c6 3e
       -0.34028402 0.051798068 -0.13129058 0.38672194
000380 d6 9a a5 3e cd f2 6e 3e 85 03 18 3e b0 92 ce be
       0.32344693 0.23334809 0.14845093 -0.4034629
000390 91 3d 2c 3e e5 e4 ac 3e 81 dc a7 bd f0 97 99 bd
       0.1682036 0.33768383 -0.08196355 -0.07499683
0003a0 e5 ed 4a 3e 9c ca 05 be 0a 11 59 be b8 f9 58 bd
       0.19817312 -0.1306557 -0.21197906 -0.052972525
0003b0 d3 77 a1 3e ac 54 b5 be 1b 19 ca 3e 56 e6 73 3d
       0.3153673 -0.35416162 0.3947228 0.059545837
0003c0 66 12 e5 3e 9c 38 83 be 46 36 94 3e 8f 93 de be
       0.447406 -0.25629127 0.28947657 -0.43471953
0003d0 4b 45 9e be be a3 a6 3d 26 5a 23 3e 4d 89 ab be
       -0.3091224 0.081367 0.15952358 -0.3350319
0003e0 a2 56 e9 bd d2 fc 06 be 46 d4 a3 bd 3a 32 17 be
       -0.11393477 -0.13182381 -0.07999472 -0.14765254
0003f0 c4 c9 67 be c4 49 84 be 16 49 c1 be 1f 3a c9 be
       -0.22635561 -0.2583753 -0.37751073 -0.39302155

encoder.2.weight f4 [256, 256]
000000 58 4c 20 3d 64 f0 b1 bc 71 78 41 3d 8f 3c 4f 3d
       0.039135307 -0.021721072 0.047234003 0.050594863
000010 6c b5 81 bc b7 92 86 3c fb cf 65 3d e6 c8 5c bc
       -0.015833579 0.016427381 0.05610655 -0.013475632
000020 56 3d 1e bb 37 5a 3a 3d ae 7b 48 bd 6a d7 40 3d
       -0.0024145446 0.04549619 -0.048946075 0.047080435
000030 78 a2 08 3d eb fe f2 bc cc 58 1e 3d c4 6f 01 bd
       0.033358067 -0.02966257 0.038658902 -0.03160073
000040 fd f2 08 bc b9 04 76 3c 8b 41 d9 3c 07 08 f5 3b
       -0.008358714 0.015015774 0.026520511 0.0074777636
000050 2b 7d 2a bc ad bb 27 3c 3c 13 83 3c d9 9a 52 bc
       -0.010405819 0.0102376165 0.016000383 -0.012854301
000060 f3 3f 1a bc 4f 22 81 bc 00 01 6f 3d 61 e8 59 bc
       -0.009414661 -0.01576343 0.058350563 -0.013300032
000070 5c 16 1c bd 64 79 c2 3c 71 d6 84 3d 3a e6 ac bc
       -0.03810726 0.023739524 0.06486214 -0.021105874
000080 5b 98 be bc 1e b5 f1 bc f4 4d d9 3c f4 0f 7a bd
       -0.023266008 -0.029505309 0.026526429 -0.06105037
000090 b4 e5 b5 bc 90 16 05 3d 27 a6 67 3d 80 af 9d bb
       -0.022204258 0.03249222 0.05655494 -0.004812181
0000a0 fd c8 10 3d 6a d5 8a bb fb cd 63 3c 28 d0 66 3d
       0.035347927 -0.0042368667 0.01390409 0.056350857
0000b0 4c ff 2b 3d 51 36 a3 3d 84 fd 99 3c 36 cb f6 3c
       0.041991517 0.079693444 0.018797643 0.030126195
0000c0 e5 93 f7 bc 69 fc 13 bd cc a9 53 3d 21 93 df bb
       -0.030221889 -0.03612939 0.051675603 -0.006822959
0000d0 cf 6f f1 3c 07 9d 02 bd 50 7e e4 3c b8 cb b2 bb
       0.02947226 -0.031888034 0.027892262 -0.005456414
0000e0 ae bc 6a 3c 9a 69 64 3b d3 35 d3 3c 22 50 c1 3c
       0.014327211 0.0034852982 0.025782501 0.02359778
0000f0 60 35 12 3d a1 a9 74 3d 9f 0b 90 3d 2b 2c 24 3c
       0.035695434 0.059732083 0.070334665 0.010020296
000100 29 e9 76 bc 2c fc 0d 3d 09 0f 6d bc c4 fd 83 bc
       -0.015070238 0.034664318 -0.014468917 -0.016112216
000110 10 b6 57 3d 0b 9d 90 3d 53 92 c8 bc a2 a4 b4 3c
       0.052663863 0.070612036 -0.024483835 0.02205116
000120 c0 e8 09 3d 6b 71 e7 3c 78 d1 54 bd 68 66 61 bc
       0.033669233 0.028252324 -0.051957577 -0.013757326
000130 0c 3f 5b 3a a0 24 a0 3b bb da d9 ba f7 80 63 3d
       0.0008363582 0.0048871785 -0.0016620973 0.055542912
000140 bc 01 27 bc 40 19 0b bd 6f 69 02 3d 31 a2 06 bd
       -0.010193285 -0.033959627 0.03183883 -0.03286952
000150 80 41 65 bd cc 37 32 3d 44 99 75 3d 2d 95 d5 3c
       -0.05597067 0.043510243 0.05996062 0.02607211
000160 04 a3 41 3d 77 85 83 3c 4d 86 ce bc bb e3 52 3d
       0.047274604 0.016054852 -0.025210524 0.051486712
000170 6c db 30 3d 5f dd 6d 3c 50 76 64 3d 1c 0c bf 3c
       0.043178007 0.014518111 0.055776894 0.023321204
000180 2a 6a 29 bd 7a 6c 32 3d ed 86 9d bb 80 13 1b bb
       -0.04136101 0.043560483 -0.004807344 -0.0023662746
000190 10 87 27 3d 98 48 34 bc 8a 8a 5f 3d ae 8a 53 bb
       0.04090029 -0.011003636 0.05457548 -0.0032278704
0001a0 11 3b f9 3c fc 22 fe 3b fa dc 47 3d 30 31 d0 bb
       0.030423673 0.0077556353 0.048794724 -0.00635352
0001b0 d0 62 4c bd 0a 2c b2 bb 40 0f bf 3b b0 e1 fa 3c
       -0.049898922 -0.005437379 0.0058306754 0.030625194
0001c0 40 00 cf bc 68 74 3d bc bc 23 fc bc b2 87 5a bd
       -0.025268674 -0.011563398 -0.030778758 -0.053352065
0001d0 0b e8 0a 3d c7 50 78 bc 7d 26 6f bc b0 42 f3 3b
       0.0339127 -0.015155978 -0.014596579 0.0074237213
0001e0 66 52 d2 3b 26 91 f6 bb 82 6c 48 3d cb a2 cb 3c
       0.006418514 -0.0075246273 0.048931606 0.0248579
0001f0 c9 da c2 bc 94 c8 a3 b9 6b db 5d 3d 2e 79 8d bc
       -0.023785966 -0.00031239225 0.05416433 -0.017269697
000200 3b 31 c2 3b 84 01 51 3d f0 1e 94 3c 30 79 f6 3c
       0.005926279 0.051026836 0.018081158 0.030087084
000210 26 64 a3 3d b8 05 ed bb fe 45 0e 3d ae 42 29 3d
       0.07978086 -0.0072333477 0.03473472 0.041323356
000220 b3 7e 7b bd 83 33 e0 bc fa d5 8e bc e7 a3 79 3d
       -0.061400127 -0.027368313 -0.017436016 0.060947325
000230 0f e7 3d bd a6 02 5d 3d 8b 27 19 bc 67 cf 78 bc
       -0.046362933 0.053957604 -0.009347807 -0.015186167
000240 1e 0b 56 3d ca a9 af bc 4d f5 99 3d c3 8e e2 3c
       0.052256696 -0.021443266 0.075174905 0.027655965
000250 0d 56 1a bd 54 e8 78 3d e4 76 9f 3d a2 50 2e bd
       -0.03767972 0.06076844 0.077863485 -0.042557366
000260 dc 7e c1 3c ae 18 3f bd 41 ee ba bc c0 da 67 3c
       0.023620062 -0.046654396 -0.022818686 0.014151275
000270 7a 5c 70 3d 45 19 14 bd 47 1c 51 3d de d0 49 3c
       0.058681943 -0.03615691 0.051052358 0.012317864
000280 59 4d 3f bc 60 b5 58 bc cb 66 39 3c d6 f6 58 3d
       -0.011676156 -0.013226837 0.011316012 0.052969776
000290 53 80 5f bd 2f 72 80 3d 00 d9 6f 3d dd 8a 5b 3d
       -0.05456574 0.06271779 0.058556557 0.053599227
0002a0 39 25 98 bc 4e b5 ec 3c c8 04 32 bd a1 c9 59 3d
       -0.018572437 0.028895047 -0.04346159 0.053170804
0002b0 9e 0c 43 3d 50 f9 1f 3d 3f a4 a4 bc ab 0c 3c 3d
       0.047619455 0.039056122 -0.02009785 0.04591052
0002c0 35 de 94 bb e8 0d 17 3c f8 ac 77 bd 77 8d 4d 3d
       -0.0045430907 0.009219624 -0.06046769 0.05018374
0002d0 c4 57 7b bd 96 ae 83 3d 03 2a 51 3d dc d6 ec 3b
       -0.061362997 0.06429784 0.051065456 0.0072277617
0002e0 df e1 c6 3b 43 18 00 bd 78 c9 62 bd e8 70 06 3d
       0.0060694064 -0.031273138 -0.055367917 0.03282252
0002f0 13 19 88 3d bf 77 6c 3d b1 6b 01 3d c4 84 d3 bc
       0.066454075 0.057731386 0.031596843 -0.025820144
000300 bf e3 77 bd b8 62 a4 bc b8 a8 2f 3d 19 af 12 bd
       -0.06051993 -0.020066604 0.042885512 -0.035811517
000310 44 71 8d 3d 79 2d ce 3c dc 71 ef 3c c6 62 20 3d
       0.06906369 0.025168167 0.029229097 0.039156698
000320 b5 c7 50 3c af 32 1b 3c 4e bc 36 3d 5e 67 c2 3c
       0.012742926 0.009472533 0.044613175 0.02373093
000330 4b 75 00 bd 90 49 85 3d 42 bb e5 3c de 74 f3 3c
       -0.03136186 0.065081716 0.028043393 0.029718813
000340 12 5c 1e 3d e0 65 79 3d 38 de cf bc b4 81 e3 3c
       0.038662024 0.06088817 -0.025374517 0.027771808
000350 78 54 dc 3c f8 69 44 3d 24 df 42 bd 54 b1 32 3d
       0.026895747 0.047952622 -0.047576085 0.043626145
000360 84 bc 39 bd b7 01 49 3c ca 8c 0e 3d 5d 63 68 3c
       -0.045345798 0.012268475 0.034802236 0.014183846
000370 bc 71 51 3d 96 0f 09 bd 40 6d c8 3c 23 5b d7 3c
       0.051133856 -0.03346213 0.024466157 0.026288575
000380 0e 0c 78 3c 6d 82 6c bc da 49 96 3d f0 05 9f bc
       0.015139593 -0.014435393 0.07338305 -0.01941201
000390 89 6b 4f bc 97 d5 59 3c 9e 9e 12 bd 68 2e ea 3c
       -0.012659916 0.013295553 -0.0357958 0.028586581
0003a0 95 1b 3d 3d e8 8f fa bc a6 ea 1e 3d c4 8b 22 bd
       0.046168882 -0.030586198 0.038797997 -0.039684072
0003b0 d2 d6 e0 bc fb 47 21 bd 62 d0 95 bb f0 55 a1 3d
       -0.027446184 -0.039375287 -0.0045719603 0.078777194
0003c0 23 f0 a2 3d 96 b9 2c bd 86 de da 3b d2 49 34 bd
       0.07955959 -0.042169176 0.006679359 -0.044015713
0003d0 de 7e 1e 3d 8e 33 41 3d ff 82 5b 3d f1 84 d3 3c
       0.03869521 0.047168307 0.053591724 0.025820227
0003e0 87 61 2a 3d 81 52 e0 3c d4 60 10 bd 00 20 bf b7
       0.041596916 0.02738309 -0.035248592 -2.2783875e-05
0003f0 b6 3b 29 3d 0c ad f7 bc 3a ec 58 3d 09 96 8f 3a
       0.04131671 -0.030233882 0.05295966 0.0010954748

encoder.2.bias f4 [256]
000000 60 0a 2f bc cc 29 19 3c b6 95 b4 ba 82 da f8 3c
       -0.010683626 0.009348344 -0.0013777527 0.03037763
000010 8e 67 18 3d 70 ba 43 3d 3e 6c 9f 3c 2e a5 0e 3d
       0.037208132 0.047785223 0.019460794 0.034825496
000020 c2 b1 2e 3d 15 57 fa bc 1f 0a 27 3d 46 4f 19 3d
       0.04264999 -0.030559102 0.040781137 0.037429117
000030 80 86 75 3a fc 38 3c bd 28 75 ce 3c 8e 3b 21 3d
       0.00093660504 -0.045952782 0.025202349 0.039363436
000040 dc 15 99 bc f4 43 69 3d c8 35 44 3c 70 d4 be bb
       -0.018687181 0.05694957 0.011975713 -0.0058236644
000050 c8 ae 49 3c 40 60 4a bb 0f fd 3d 3d 05 c5 1a bc
       0.0123097375 -0.0030880123 0.046383914 -0.009446387
000060 15 0d 5d 3d 60 66 6c 3b 20 bd 7e 3c d2 9e 4f 3d
       0.053967554 0.0036071762 0.015548021 0.050688572
000070 e2 0a 6d bd c7 60 4d 3d 8e 0c 35 3b a7 bc e8 3b
       -0.057871707 0.050141122 0.0027625891 0.0071025672
000080 18 08 64 bd 2b 71 9b bc 90 8f ab bb 4b f5 c4 3c
       -0.05567178 -0.018974861 -0.00523562 0.024042746
000090 c9 15 ea bc e6 64 d0 bc ba d9 ee bc bf 38 89 3d
       -0.028574841 -0.025438737 -0.029156554 0.067002766
0000a0 12 4a 30 3d 4f c2 13 3d 6b 2e 57 bd 86 c2 b6 bb
       0.04303939 0.03607398 -0.052534502 -0.005577388
0000b0 e9 c5 88 bc 88 25 39 bc 74 88 db bc dc ac ad 3a
       -0.016695933 -0.011300452 -0.026798464 0.0013250369
0000c0 7e 32 75 3b 1f 2d d4 3c 5c 19 84 3b 21 d2 76 3c
       0.003741413 0.025900422 0.0040313434 0.015064747
0000d0 84 6b 5d bd 60 9f 14 bb c8 93 35 bd 0a d5 2a bc
       -0.054057613 -0.0022678003 -0.04433039 -0.010426769
0000e0 d3 0d 8f 3c 6f d3 95 bc 7d 34 3a 3d c9 14 7f bc
       0.017462647 -0.018289296 0.045460213 -0.01556892
0000f0 18 ff 83 bc c8 6c 83 ba 87 e2 0f bd c2 a0 6f 3d
       -0.01611285 -0.0010026926 -0.035128143 0.05850292
000100 4b 0c 67 3d a7 18 89 3d 2d c1 ba bc 7c d5 a8 bc
       0.056408208 0.06694155 -0.022797192 -0.02060961
000110 18 90 56 3d f0 a3 6f bd 5a 43 81 bc 90 02 8a bb
       0.052383512 -0.058505952 -0.015779186 -0.0042117313
000120 a6 2e b6 3b dc 8a 04 3d 42 0f 0b 3d 57 4a 9e bc
       0.00555976 0.03235899 0.033950098 -0.019322557
000130 36 62 0e 3d 20 8b 00 3d 1c 41 4a 3c 88 4b c5 bc
       0.03476163 0.03138268 0.012344625 -0.024083868
000140 b9 e0 a1 3a fb a7 35 3d 5f f1 98 bc 3c 5f b1 3c
       0.0012350298 0.04434965 -0.018669782 0.021651857
000150 37 aa 9d 3d 98 e4 33 bd 90 3d 23 3c a2 c0 0a bd
       0.076984815 -0.043919176 0.009963408 -0.033875115
000160 bd 1d 23 3d d2 06 39 bd 78 ea 2f bd 8c bd b5 3c
       0.039823283 -0.04517252 -0.042948216 0.02218511
000170 e5 eb 37 bc 70 ce ac bc ba 08 99 3c 26 2d 40 bd
       -0.011225675 -0.02109453 0.018680919 -0.046918057
000180 30 8e a5 bb 25 5b 80 bc ff c5 f8 bb 1a f7 df 3b
       -0.0050523505 -0.015668461 -0.0075919623 0.0068348767
000190 40 07 ca ba e0 4c 9c 3d d3 4f d9 bc ec 09 84 3d
       -0.0015413538 0.0763185 -0.026527321 0.06447205
0001a0 40 df f0 bc 8a 34 8e 3d ab 1e 58 bc bc 5b a2 bc
       -0.029403329 0.06943615 -0.013190906 -0.019819133
0001b0 17 fe 90 bc f6 4d 56 bd 45 95 ee bb 13 a5 29 3d
       -0.017699284 -0.052320443 -0.007280978 0.041417193
0001c0 a6 12 7c bd 6d 3f 15 bd ec f2 c5 bc 73 68 d4 bb
       -0.061541222 -0.03643744 -0.024163686 -0.006482178
0001d0 ca cc 93 bb 2c 53 5f 3d 22 cc e8 3a 74 83 25 3d
       -0.0045104967 0.05452268 0.0017761032 0.040408567
0001e0 ed be cd 3c 0c 39 1a 3d 4f 49 a4 bc 3c 8a 88 bd
       0.025115455 0.03765206 -0.020054488 -0.06666991
0001f0 68 bb 85 bd 62 7d 65 bd 98 91 5b 3c f4 b8 08 3d
       -0.065298855 -0.056027777 0.0134014115 0.03337951
000200 1f 01 40 3c d2 f0 09 bd c4 52 8e 3c 13 b2 ba 3a
       0.011719017 -0.03367693 0.01737345 0.0014243744
000210 e0 e9 92 bc 95 c4 95 3d 0a 92 58 bc f9 2a 4f 3d
       -0.017933786 0.07312886 -0.013218412 0.05057809
000220 bb c7 14 bb 46 99 24 bd 34 20 a9 bc 09 99 43 3d
       -0.0022702056 -0.040185235 -0.020645238 0.047753368
000230 b0 aa 39 bd 63 46 31 bd 87 80 61 bd 5e cc 03 bd
       -0.045328796 -0.043280017 -0.055054214 -0.03217732
000240 d8 cc 89 bc 5a 43 73 3d 32 9c ee 3c 22 58 72 3b
       -0.01682131 0.059390403 0.029127214 0.00369788
000250 81 00 45 bb 56 f6 2f 3d 9a fa 9f 3d ed 42 33 3d
       -0.0030060115 0.042959534 0.0781147 0.043764997
000260 03 ec 5e 3b 50 6d 2a bc 8b 25 db 3c 6c 22 66 bc
       0.0034015186 -0.010402039 0.0267513 -0.014046293
000270 3d c9 53 3c 82 f0 26 bd e0 94 e8 bb d4 10 0d 3d
       0.012926397 -0.04075671 -0.0070978254 0.034439877
000280 6f 56 9e bc f8 af a2 3c 93 96 08 bc 5d b4 58 3c
       -0.019328324 0.019859299 -0.008336681 0.013226596
000290 c0 e9 3a bd b8 c5 89 bc bc 35 b5 3c 18 13 74 bd
       -0.045633078 -0.016817912 0.02212035 -0.05958852
0002a0 8d 09 dd 3b 58 c8 ab 3d 52 e9 94 bb 82 8c 6a 3c
       0.0067455233 0.08387822 -0.0045444155 0.014315726
0002b0 64 b9 4d 3d 6d 83 43 bd 47 d4 e9 bb ac c1 8e 3c
       0.05022563 -0.04773276 -0.007135901 0.017426334
0002c0 03 3d 5e 3d 6d 4c 41 3c 54 7f 16 3d 21 7d fd 3c
       0.054257404 0.0117980065 0.036742523 0.030943455
0002d0 9f a8 9a 3d c3 96 d5 ba f4 82 a7 bc de 42 7f bd
       0.07551693 -0.0016295541 -0.020448186 -0.06231963
0002e0 c7 74 cc bb 7c 57 d3 3c 5e 6d 9c 3a ad 7c 9b bc
       -0.006239507 0.025798552 0.001193445 -0.018980348
0002f0 59 09 98 bc 78 2c 97 3d 8c fe 6d 3c c9 86 7b bc
       -0.018559145 0.073815286 0.014526021 -0.0153519595
000300 b9 18 77 3b da 2e dd 3b 43 54 00 bc 3c 5c 57 3a
       0.0037703945 0.00674997 -0.00783259 0.0008215343
000310 bb 39 85 3b e3 bf 48 bc 23 ad 96 3d 48 cb 9b bc
       0.00406572 -0.012252781 0.07357242 -0.01901783
000320 2a 91 a7 3c 5d 46 83 bd c8 7c 4b 3c c1 71 c1 bc
       0.020454962 -0.06409905 0.012419887 -0.023613812
000330 80 46 a8 3c e0 ff ab 3b ed 94 44 bd d2 f2 1b 3d
       0.02054143 0.0052490085 -0.04799359 0.03807337
000340 44 68 81 bd ed 73 3b 3d 90 a1 4b 3d 97 78 b0 3d
       -0.06318715 0.045764852 0.049714625 0.08616751
000350 6e c3 69 bd 1c af e6 3c e6 90 1f bc 30 5e 0b bd
       -0.057071142 0.02815967 -0.009739136 -0.03402537
000360 b2 6f 51 3d 2a 91 67 3d b0 fa 86 3c ec 9b 38 3d
       0.05113191 0.056534924 0.016476959 0.045070574
000370 f8 81 e2 bb b2 1e f8 bb e8 6d 99 3b f0 0c 01 3d
       -0.006912466 -0.0075720185 0.0046822913 0.03150648
000380 70 79 58 3a fb 47 dd bc 8e 3c 92 3d d0 fd 3e 3d
       0.00082578417 -0.027011862 0.07140456 0.046628773
000390 45 df ab bc e5 56 8e 3d 4e 91 42 3d e4 19 db bc
       -0.020980487 0.069501676 0.047501855 -0.026745744
0003a0 b8 4b 05 3c 68 f0 59 3d 08 f4 e2 bc 9a f5 16 bd
       0.008135729 0.053207785 -0.027704254 -0.036855318
0003b0 f4 1e 2a bd 74 b0 84 bc e6 81 5e bd f8 05 c8 bc
       -0.041533425 -0.01619742 -0.0543231 -0.024416909
0003c0 1b 6c f9 bb d6 04 21 bd 2b c1 5f bd 78 12 2f bd
       -0.007611764 -0.039311253 -0.05462758 -0.042742223
0003d0 4c cc 1d 3d ac 36 3d bd ae dd 0c bd 04 b9 76 bd
       0.03852491 -0.046194717 -0.034391098 -0.06023504
0003e0 3e 59 8a bd d4 19 9e 3c 51 5c e7 3c 00 e6 65 bd
       -0.06755303 0.019299425 0.028242262 -0.05612755
0003f0 76 55 e6 3c 94 cd a7 3b 33 a2 6d 3d 54 dd 58 3c
       0.028116923 0.0051209424 0.058016013 0.0132363625

policy_head.weight f4 [5, 256]
000000 c1 15 12 bd 52 19 3d bd 9b 62 2a 3d ab 94 50 3d
       -0.035665277 -0.046166725 0.041597944 0.05092303
000010 22 a7 5d bd bd 0a ba 3c 9d 0c 0a bd 32 a5 38 3d
       -0.05411447 0.022710199 -0.033703435 0.045079418
000020 64 75 2f bd bf 02 4d 3d 76 6c 4a bc 1b 82 3a bd
       -0.04283656 0.050051447 -0.012354961 -0.045534234
000030 b8 df 3d bc 50 ad 59 3d 5c ed fc 3c 94 89 20 bc
       -0.011588983 0.0531438 0.0308749 -0.009798426
000040 65 11 5a bc e6 ea 84 3c 22 f7 45 3d 00 7a 50 3d
       -0.013309811 0.01622529 0.048331387 0.0508976
000050 d4 71 3e bd d0 36 78 3d e5 0c ef bc db 60 55 bc
       -0.046495274 0.06059915 -0.029180953 -0.01302358
000060 56 e7 e1 bc 10 d9 e3 3c 0e cf 27 bd d1 c5 1b bd
       -0.02757613 0.027813464 -0.040968947 -0.03803045
000070 8f c0 6d 3d 1c fb 29 bd 90 77 73 bd d8 92 39 3d
       0.058044966 -0.041499242 -0.059440196 0.045306057
000080 3e 72 66 3d 2a b9 01 3d cc de 6c bd e6 85 79 3c
       0.056261294 0.031670727 -0.057829663 0.015229678
000090 30 60 55 3d 1a 6c 28 3d 48 94 41 bd 19 aa 06 3c
       0.052093685 0.04111872 -0.047260553 0.008219265
0000a0 a0 1d 58 3b ad 09 cd 3c 1a 82 f3 3c 83 59 64 bd
       0.0032976642 0.025029028 0.029725123 -0.055749428
0000b0 49 1c 3f 3d 0c 12 cf bc 9c 8d bc bc 77 41 c4 3b
       0.046657834 -0.02527716 -0.023016743 0.0059892493
0000c0 34 82 25 3c 3e 1b 49 3c b9 79 49 bd e3 9a 60 bd
       0.010101844 0.012274561 -0.04918835 -0.05483521
0000d0 1c d2 df 3c 08 72 69 bd 18 4e 9f 3c f0 2a 88 bc
       0.027321868 -0.056993514 0.019446418 -0.016622037
0000e0 90 1b 11 3d 1b f6 fa 3b 21 20 5f 3d da a4 f7 bc
       0.035426676 0.0076587326 0.054474 -0.030229975
0000f0 18 50 66 3b 5a 3e 07 3d 92 e4 7f 3c f0 78 4d bd
       0.0035142954 0.033018447 0.01561846 -0.050164163
000100 a2 44 94 bc 13 4e 48 bd 05 95 02 3d 4c 66 0b bd
       -0.018099133 -0.048902582 0.031880397 -0.034033105
000110 5a 91 88 bd 24 4c f9 bc f6 95 9f 3c 6a c9 4c bd
       -0.066683486 -0.030431814 0.019480687 -0.04999677
000120 eb 68 63 3d de f7 3e 3d 33 a6 29 bc 53 bb 2b bd
       0.05551998 0.046623103 -0.010354566 -0.041926693
000130 d1 82 26 bd e0 4e 16 bc e4 46 24 bd 0a f7 56 bc
       -0.0406521 -0.009174079 -0.04010667 -0.013120422
000140 96 7d f8 bb 0d bb 36 bc 6e d6 88 b9 98 ba c5 bc
       -0.0075833304 -0.011152995 -0.00026099704 -0.024136826
000150 7c f7 11 3d 37 5d 46 3d 48 93 2b bd b8 a8 13 bc
       0.03563641 0.04842874 -0.041888505 -0.009012394
000160 7b d0 5f bd 9e fc 0a bd ae 7e 32 3d 9a 4c e2 bc
       -0.05464218 -0.03393232 0.043577842 -0.027624417
000170 63 be 34 bd de b5 46 bd 47 a8 14 3d d1 b8 99 bc
       -0.04412688 -0.048513286 0.036293294 -0.018764885
000180 70 27 ea 3c 19 c2 8b bd 45 38 ad 3c 47 d3 bd 3c
       0.028583258 -0.068241306 0.021144995 0.023172034
000190 f0 ca b7 3b 62 df 1f bd da d2 8f bb 40 6e c6 3b
       0.005608909 -0.039031394 -0.004389149 0.0060556233
0001a0 ca 96 79 3d fc 5d 77 3c 3c dd 57 3c 72 01 a2 bc
       0.06093482 0.015098091 0.013175305 -0.01977608
0001b0 ff f7 73 3c 59 f5 6f bd 55 3f 93 bc 06 b2 f4 3c
       0.01489067 -0.05858359 -0.017974535 0.029870044
0001c0 3e 5a 20 bd eb 8c 42 3c 2c 53 3a bd 2b cc b2 3c
       -0.03914856 0.011874418 -0.045489475 0.02182587
0001d0 51 20 7a bd df 50 e8 bb a4 9d f8 bc 0c ee 0e 3c
       -0.061065976 -0.0070897187 -0.030348606 0.008723747
0001e0 ee 7f 4b 3d 00 05 c6 b9 49 59 09 3d 86 57 3f 3d
       0.04968255 -0.00037769228 0.033532415 0.04671433
0001f0 36 3d 05 bd a4 7e 31 3d 50 ed 3c bd 84 47 b2 3c
       -0.03252908 0.043333665 -0.046124756 0.021762617
000200 1a 57 dc bb 78 c6 c2 bc 00 7a 2d 39 43 78 66 3d
       -0.0067242505 -0.023776278 0.00016544014 0.056267034
000210 ac 54 9c bc 69 1f 04 3d f6 23 86 bd f3 18 fb bb
       -0.019083343 0.032256518 -0.06549828 -0.0076628863
000220 65 fb 99 3c 38 95 86 bd 60 04 64 bb 20 1f 55 3d
       0.018796632 -0.0657143 -0.0034792647 0.052031636
000230 cc 11 82 3c ff 98 fd bc ec 18 3a 3d 68 6a 5b 3d
       0.015877627 -0.030956743 0.045433924 0.053568274
000240 39 dd 68 3c ad 90 92 bc f6 19 8d bd f5 21 24 bc
       0.0142129 -0.017891252 -0.06889717 -0.010017862
000250 4c 11 49 3d 6c f3 e4 bc c0 1e 5e 3d d3 cd 5d bd
       0.04908876 -0.027948104 0.054228544 -0.054151367
000260 83 ea 1c bd 08 8d 0c bc c6 54 1e 3d d1 a5 51 bd
       -0.038309585 -0.008578546 0.038655065 -0.051183525
000270 c9 3c 05 bd 99 e4 6c bd d6 52 37 3d db e9 0e bd
       -0.032528672 -0.057835195 0.044756733 -0.03489099
000280 e2 de 54 3c 1c 55 86 bc 41 eb e9 3c 71 f3 42 3c
       0.0129925925 -0.016398005 0.02855456 0.011898861
000290 5a 03 0c 3d 40 38 3f 3c a3 22 28 3d 00 8e 1a 3c
       0.034182884 0.011671126 0.041048657 0.0094332695
0002a0 f5 b8 1b bc 5c e8 76 bc cc 6b 6a bd 15 28 3c 3c
       -0.009504546 -0.015070047 -0.05723171 0.011484166
0002b0 f7 22 1e 3d a4 cd e2 bb 3f c7 45 3c 2d cc 2e bd
       0.038607564 -0.006921487 0.01207143 -0.042675186
0002c0 23 93 b0 3c c4 05 3f 3d d4 c6 ec bc 5f bf 3b bd
       0.021554535 0.046636358 -0.028903402 -0.045836803
0002d0 2e bc e9 bc 49 64 c9 3c f2 ad 6c bd 58 93 46 3d
       -0.028532114 0.024583953 -0.057783075 0.04848036
0002e0 e2 4e 89 bb 16 e8 db 3c 57 bc b1 3b a8 da 9d 3c
       -0.0041903118 0.026844066 0.005424063 0.019269302
0002f0 ae b4 2e bd ae 36 48 3d e1 43 13 bc 17 3a 50 bc
       -0.04265278 0.04888027 -0.008988352 -0.012709162
000300 1a dd 5f bd be a8 4c bd 92 2e 3e 3d a4 95 ad 3c
       -0.05465422 -0.049965613 0.04643113 0.021189518
000310 98 40 a7 3c ac b9 55 3d d7 45 f7 3b c8 22 1c 3c
       0.020416543 0.052179024 0.0075461674 0.009529777
000320 79 9a d9 3c d9 5a fb bb b6 96 00 bd 11 47 4f bd
       0.026562916 -0.007670742 -0.03139373 -0.050604884
000330 54 6d b8 3c 50 2f ec 3b 92 69 1e bd fb c0 60 3d
       0.02251307 0.0072077885 -0.0386749 0.05487154
000340 d8 3a da 3c 0d b6 4b bc d4 b5 84 3c 62 85 17 3c
       0.026639387 -0.012433541 0.016199984 0.00924811
000350 d4 14 13 bd 90 8f 63 bd d2 c6 00 3d 8a cb 0a 3d
       -0.035908535 -0.055556834 0.03143961 0.033885516
000360 fe 8a 60 bd 68 65 61 3c 20 37 cb bc 5a b7 6e bd
       -0.054820053 0.013757087 -0.02480656 -0.058280326
000370 c9 43 af bc ac b0 10 3c 5f a9 80 3c 21 27 11 bd
       -0.021394627 0.008831184 0.015705762 -0.035437707
000380 cd 5b 2a bc 81 36 53 3d db 0d 2d bd fc 83 34 3d
       -0.010397864 0.05156565 -0.04224954 0.044071183
000390 5c 97 55 3d ef 8b 5c 3c bc e1 9e bc 9c f7 d1 3c
       0.0521463 0.013461097 -0.019394748 0.025630765
0003a0 8b 9b 0a 3c 4c f4 31 bd b8 44 8e bc 60 06 19 bc
       0.008459936 -0.04344587 -0.017366752 -0.009339899
0003b0 cd f2 1d 3d 7e e4 24 3d b2 c3 4e bd a4 e8 76 bd
       0.03856163 0.04025697 -0.0504796 -0.060280457
0003c0 ad 8f 4b bd 62 f4 6f bd 75 7a 00 bd 89 cf e6 bb
       -0.049697567 -0.05858267 -0.031366784 -0.007043783
0003d0 c2 88 1d bd ef 44 0b bc d5 b5 c6 bc 8e b8 3c 3c
       -0.0384605 -0.008500322 -0.024256626 0.011518611
0003e0 22 d6 28 3d 38 89 60 3d cf ae 97 3c b8 e8 0b bc
       0.041219838 0.054818362 0.018515972 -0.008539371
0003f0 ed 5b 84 bd 47 46 e8 3c 7a 6b 11 3d 15 c0 cb bb
       -0.06462846 0.028353823 0.03550289 -0.0062179663

policy_head.bias f4 [5]
000000 a0 ef 71 bc 23 b6 70 3d 2f 1c f1 bb 9e f2 a7 ba
       -0.014766604 0.05876745 -0.007358096 -0.0012813394
000010 ad 1e 87 bd
       -0.06597648
