policy.pt (torch, 276233 bytes, 6 tensors)

encoder.0.weight f4 [256, 5]
0.33340088 -0.054445613 -0.28493533 0.06825808 0.05042325 -0.2865232 -0.029607438 0.4026415
0.28327486 0.3946264 0.24058166 -0.16788088 0.055038173 -0.25294524 0.41181964 -0.09204006
-0.24785179 -0.39297825 0.2324093 0.32845965 0.122509375 0.044264916 -0.23413502 -0.20311522
0.3558486 0.18962133 -0.1246244 -0.06532246 -0.12778148 -0.44470435 0.30486152 0.3092771
-0.2201618 0.23234357 0.4105371 -0.20305 0.3622446 -0.08292872 -0.15931895 0.042771004
-0.36516768 0.37082553 0.41226572 0.3173983 -0.40208316 -0.05954674 0.14042854 -0.4344873
-0.1633794 -0.1280255 -0.12923785 -0.056366313 0.306773 0.33486217 -0.15479991 -0.38130555
-0.17936689 0.40745336 -0.12580493 -0.13520747 0.16382888 0.013069878 0.2785137 -0.4210416
0.2760013 0.30315104 0.4297069 0.30746764 0.20767085 -0.0024985957 0.024635358 -0.07027783
0.029169422 0.27412957 0.2255404 -0.40343535 -0.31546956 0.10962868 0.20745885 -0.37638527
-0.40802643 0.16618204 0.4376097 -0.4434347 0.26888454 -0.124226734 -0.0013893453 0.1641234
0.11783222 0.11899866 -0.24900779 0.41239005 -0.14763546 -0.06387439 -0.017731905 0.38244495
-0.3577259 0.17046833 0.34950703 -0.32065666 0.20807806 0.31545568 0.29413873 -0.22910096
0.20509024 0.18242797 0.26943725 0.0131579535 0.04345616 -0.0055657146 0.12161119 -0.20279263
0.021730093 -0.23856455 0.34675023 -0.44614518 0.3993826 0.025864214 0.1891607 -0.01894325
-0.116107084 -0.29878458 -0.2715017 0.35521325 0.36118987 0.12467986 -0.37605137 0.39062643
-0.3283606 -0.0949586 0.29392147 -0.30835277 -0.16444261 0.27986842 0.17843431 -0.2351183
-0.048376918 -0.32135102 -0.43466276 0.036613565 -0.31619972 -0.42062804 -0.29389822 -0.19427323
-0.12294045 -0.04251774 -0.2330388 0.18577245 -0.22376452 -0.029601749 0.2810016 0.09346026
0.1776598 -0.08549867 0.4427827 -0.059421502 0.43942863 0.0433461 -0.051880643 0.105175994
-0.38264304 0.16973937 0.3441618 -0.44084567 -0.17956921 -0.22614923 -0.11667802 0.37802172
0.062281962 0.3639431 0.14266723 0.23776233 -0.095598936 0.40819794 -0.27001587 0.17131332
0.08683785 0.011268104 -0.04519513 0.053829044 -0.24901374 -0.1879103 0.3969748 0.102110885
0.2775131 0.10875259 -0.29227722 -0.32593524 0.075392224 0.20538418 -0.18241349 0.04619841
-0.24013911 -0.009799063 -0.27852052 0.34955016 0.26310122 0.20851977 -0.15566076 0.42171
-0.27255183 0.03267806 -0.23616518 0.3842749 -0.04498285 -0.022247354 -0.002717952 0.3823197
-0.28795776 -0.43958166 -0.013980148 -0.025417816 0.049450528 0.23058936 0.29152647 0.1855136
0.1202372 -0.4166597 -0.23429847 -0.3215133 -0.20533517 -0.019060472 0.33215192 -0.007358342
0.34543693 -0.0023123776 -0.40418717 0.3071827 -0.26658815 0.2387889 0.07455823 -0.23853312
-0.08297586 -0.048214063 0.33980772 0.4330943 0.14055523 -0.33877105 0.06132024 0.2846931
-0.31353158 -0.2904476 0.31050637 0.09610875 0.40640864 -0.020976486 -0.024202576 0.08051429
0.23964006 0.30548966 -0.25350705 0.40273413 -0.0044375956 -0.08368915 -0.27793878 -0.26529858
00000000: 85b3 aa3e 5d02 5fbd 0be3 91be e4ca 8b3d
00000010: 9c88 4e3d 2bb3 92be 4c8b f2bc 0727 ce3e
00000020: 6709 913e 790c ca3e 0a5b 763e f7e8 2bbe
00000030: b56f 613d 0a82 81be 06da d23e 807f bcbd
00000040: dccc 7dbe 7234 c9be b4fc 6d3e dd2b a83e
00000050: 32e6 fa3d 214f 353d 17c1 6fbe 70fd 4fbe
00000060: ca31 b63e 182c 423e 143b ffbd c8c7 85bd
00000070: 26d9 02be 4ab0 e3be cf16 9c3e 9159 9e3e
00000080: 1872 61be 79eb 6d3e eb31 d23e 57ec 4fbe
00000090: 2078 b93e 88d6 a9bd 8224 23be a630 2f3d
000000a0: 42f7 babe d8dc bd3e 7e14 d33e 0882 a23e
000000b0: d8dd cdbe 48e7 73bd 80cc 0f3e 1f75 debe
000000c0: ee4c 27be 1e19 03be ed56 04be 5de0 66bd
000000d0: 5a11 9d3e 0e73 ab3e de83 1ebe 7b3a c3be
000000e0: f4ab 37be ba9d d03e 02d3 00be d473 0abe
000000f0: c2c2 273e 0b23 563c 5999 8e3e c492 d7be
00000100: 0b50 8d3e 9d36 9b3e 8b02 dc3e 666c 9d3e
00000110: aba7 543e 7bbf 23bb 17d0 c93c d3ed 8fbd
00000120: b6f4 ee3c b65a 8c3e 10f4 663e 148f cebe
00000130: 3a85 a1be 0085 e03d 1870 543e 92b5 c0be
00000140: d7e8 d0be a02b 2a3e 610e e03e df09 e3be
00000150: 3cab 893e 966a febd b11a b6ba f70f 283e
00000160: 0552 f13d 92b5 f33d e6fb 7ebe ca24 d33e
00000170: c02d 17be 94d0 82bd 8042 91bc d3cf c33e
00000180: d927 b7be 408f 2e3e 96f2 b23e 1c2d a4be
00000190: 6a12 553e 6883 a13e 5a99 963e 7199 6abe
000001a0: 2d03 523e 66ce 3a3e aef3 893e 7594 573c
000001b0: 16ff 313d 9960 b6bb 4a0f f93d dfa8 4fbe
000001c0: 4f03 b23c 444a 74be 3f89 b13e 246d e4be
000001d0: e07b cc3e 30e1 d33c 58b3 413e e02e 9bbc
000001e0: 8dc9 edbd 4bfa 98be 4502 8bbe 83de b53e
000001f0: e1ed b83e 2858 ff3d ce89 c0be 3000 c83e
00000200: e11e a8be a879 c2bd e07c 963e 6ae0 9dbe
00000210: a563 28be ea4a 8f3e 7cb7 363e dac2 70be
00000220: e026 46bd 1f88 a4be 1e8c debe 1bf8 153d
00000230: eee4 a1be 8f5c d7be d479 96be 90ef 46be
00000240: 34c8 fbbd 1527 2ebd b9a1 6ebe 223b 3e3e
00000250: 8722 65be 5e7f f2bc 71df 8f3e 1868 bf3d
00000260: 73ec 353e ed19 afbd 6ab4 e23e f663 73bd
00000270: cafc e03e ae8b 313d cc80 54bd 8366 d73d
00000280: cae9 c3be 28d0 2d3e fa35 b03e 86b6 e1be
00000290: fee0 37be aa93 67be e3f4 eebd 108c c13e
000002a0: 5f1b 7f3d c056 ba3e 5c17 123e f877 733e
000002b0: 60c9 c3bd 52ff d03e 853f 8abe c26c 2f3e
000002c0: 0bd8 b13d db9d 383c 871e 39bd d87b 5c3d
000002d0: 75fd 7ebe 8f6b 40be 4840 cb3e 831f d13d
000002e0: 3216 8e3e aeb9 de3d 5ca5 95be fce0 a6be
000002f0: 3d67 9a3d 3b50 523e 9aca 3abe 8b3a 3d3d
00000300: 07e7 75be 408c 20bc 3e9a 8ebe 3df8 b23e
00000310: 34b5 863e 3586 553e 8965 1fbe 60ea d73e
00000320: ea8b 8bbe 6ed9 053d 49d5 71be aebf c43e
00000330: f03f 38bd 1540 b6bc ab1f 32bb 68bf c33e
00000340: 336f 93be d910 e1be fe0c 65bc 0639 d0bc
00000350: a38c 4a3d 9e1f 6c3e f542 953e 47f7 3d3e
00000360: ec3e f63d 6c54 d5be f0eb 6fbe 649d a4be
00000370: 6243 52be b524 9cbc d10f aa3e 3f1e f1bb
00000380: 1cdd b03e 428b 17bb 9ff1 cebe 0d47 9d3e
00000390: 3e7e 88be 1485 743e fcb1 983d 0742 74be
000003a0: 3fef a9bd 1c7c 45bd 47fb ad3e 89be dd3e
000003b0: b6ed 0f3e 6673 adbe ef2a 7b3d 4bc3 913e
000003c0: 3687 a0be 8cb5 94be b1fa 9e3e aad4 c43d
000003d0: cb14 d03e e1d6 abbc 7b44 c6bc ade4 a43d
000003e0: 3464 753e 2469 9c3e adcb 81be 2b33 ce3e
000003f0: 4069 91bb 3865 abbd fe4d 8ebe 37d5 87be

encoder.0.bias f4 [256]
-0.056370735 0.43853635 -0.43829814 -0.38628042 -0.16355784 -0.122110754 0.33114773 -0.3991116
-0.33400798 -0.25649083 0.4256029 -0.2912979 0.42040172 -0.2059925 0.02458754 0.10049057
0.27791065 0.37148902 -0.09571326 0.3102378 0.2055373 0.36516833 -0.20556526 -0.39045134
-0.16422237 -0.27089903 -0.29489127 -0.25100234 0.13932408 0.34805074 0.07462611 -0.049639232
-0.27552402 0.38544387 -0.35987586 0.34638476 -0.2918525 0.31969488 0.25323108 -0.44632456
0.03130892 0.06384626 0.3799809 0.27301025 0.27183956 -0.36796385 0.4037466 0.30872753
-0.22242549 -0.06260843 0.15295875 0.032129075 0.09106035 0.40181744 0.3208873 0.08382457
-0.16712922 0.051266063 -0.2908868 -0.04090178 -0.1549126 0.05397492 0.0032923946 0.22783712
0.015261731 0.108904436 0.20531864 0.3676037 0.017318932 -0.36640957 0.17452249 -0.018702274
0.23266631 0.2118288 0.351662 -0.15184525 0.13502924 0.4453565 -0.10710886 -0.085618615
0.1348932 -0.23204368 0.00043072685 -0.17854598 -0.2751599 0.11302253 0.3478041 -0.12222777
0.34815815 -0.3112494 0.111864164 -0.1496022 0.1259109 0.31418452 -0.19913344 -0.1772013
0.3660207 -0.38747802 0.38675433 0.2648264 -0.43276244 -0.010375768 0.28942302 -0.18901369
-0.16624594 -0.16030028 0.37128723 0.09826531 0.07219966 -0.4443074 -0.30055746 -0.17201474
-0.14250931 -0.25995296 -0.38037324 0.3431286 0.063079655 0.1059623 0.083575346 0.3349331
-0.0052060047 -0.42223838 -0.0062452373 0.09201216 0.19180846 0.4291404 0.39098895 0.37350625
-0.098362245 0.07206533 -0.35554087 0.072428875 0.37686855 0.04127675 0.08122698 -0.03927934
0.20225297 0.4023912 0.2434929 -0.42212138 -0.29617012 0.08138456 0.3130943 -0.07651901
0.056851074 0.14368798 -0.2945153 -0.030767709 -0.23585789 -0.10908002 0.088506244 0.0055865133
-0.11514712 0.445979 0.31136623 -0.21559127 0.44058043 0.38612834 0.3874395 0.42304668
0.036985494 0.3970961 -0.40933156 0.12992907 -0.12986225 -0.04910341 0.07106619 0.2775293
-0.13259178 0.06958124 0.0864122 -0.26507086 0.12111312 0.116553545 -0.037330214 0.39967078
-0.23729746 0.41697353 -0.09814579 0.24523267 -0.39326343 -0.024614006 0.26920357 0.34081644
-0.30968106 0.14632544 -0.3204008 0.012356684 -0.010111051 0.38697085 0.08263006 -0.13397148
0.054758366 0.15151188 0.02097433 -0.26051337 0.1463855 -0.21328059 -0.015065147 0.13208322
0.35843098 0.2558178 0.38149694 0.34403622 0.017615795 0.19189428 -0.3796991 0.09134232
0.3415715 -0.28896615 -0.012365632 0.42984316 0.24393035 -0.0324288 -0.113929 -0.2182742
-0.20364374 0.23905635 -0.06010034 0.3678044 -0.11874217 -0.20466094 -0.41172203 0.06060493
-0.05641438 0.097062096 0.22988607 0.29149562 0.3754819 -0.016657371 -0.06787765 -0.22210729
-0.33190024 -0.06385923 0.10132096 -0.28144506 -0.30706045 -0.33403042 -0.3458781 -0.27114877
-0.1239737 0.036985107 -0.1681222 -0.20800285 -0.36450678 -0.2251957 -0.39371467 -0.11896336
0.15859671 -0.024952143 0.2733169 0.09405299 0.08376346 -0.2799207 -0.0065897405 0.24771394
00000000: 00e5 66bd d687 e03e 9d68 e0be 8cc6 c5be
00000010: b57b 27be 3415 fabd 328c a93e 5b58 ccbe
00000020: 1803 abbe c452 83be a0e8 d93e 0025 95be
00000030: e53e d73e b3ef 52be cf6b c93c 00ce cd3d
00000040: 4e4a 8e3e cf33 be3e 5005 c4bd 7dd7 9e3e
00000050: 5f78 523e 58f7 ba3e b37f 52be 3de9 c7be
00000060: e929 28be 47b3 8abe fdfb 96be 6183 80be
00000070: f9aa 0e3e b533 b23e 93d5 983d 8252 4bbd
00000080: 7c11 8dbe e658 c53e a641 b8be 5859 b13e
00000090: b16d 95be 0caf a33e 81a7 813e a784 e4be
000000a0: c83d 003d d4c1 823d db8c c23e 00c8 8b3e
000000b0: 8e2e 8b3e c265 bcbe e0b7 ce3e 8911 9e3e
000000c0: 82c3 63be d938 80bd 38a1 1c3e c799 033d
000000d0: d97d ba3d 04bb cd3e 574b a43e 37ac ab3d
000000e0: ec23 2bbe 5dfc 513d 1def 94be a088 27bd
000000f0: 69a1 1ebe ce14 5d3d 37c5 573b 224e 693e
00000100: 570c 7a3c 4a09 df3d 0d3f 523e 8d36 bc3e
00000110: 6fe0 8d3c 099a bbbe 06b6 323e 8335 99bc
00000120: 1440 6e3e a6e9 583e 0b0d b43e 527d 1bbe
00000130: 1b45 0a3e c405 e43e e45b dbbd d058 afbd
00000140: 7121 0a3e dc9c 6dbe 2ed3 e139 c2d4 36be
00000150: c2e1 8cbe 5b78 e73d 6113 b23e 8e52 fabd
00000160: c941 b23e 155c 9fbe 0a19 e53d 5231 19be
00000170: c9ee 003e cbdc a03e a3e9 4bbe 4274 35be
00000180: 1167 bb3e 8563 c6be aa04 c63e 5397 873e
00000190: 0a93 ddbe 20ff 29bc 412f 943e ce8c 41be
000001a0: 603c 2abe c225 24be 5c19 be3e 533f c93d
000001b0: 6add 933d 427c e3be abe2 99be a224 30be
000001c0: f6ed 11be 8e18 85be 48c0 c2be 8dae af3e
000001d0: e82f 813d c302 d93d 8d29 ab3d 5a7c ab3e
000001e0: 2297 aabb a12f d8be d9a4 ccbb df70 bc3d
000001f0: 7069 443e 4ab8 db3e b42f c83e 363c bf3e
00000200: 2572 c9bd fd96 933d 7409 b6be 9755 943d
00000210: eaf4 c03e cf11 293d 555a a63d 60e3 20bd
00000220: 671b 4f3e 3806 ce3e 3456 793e 4b20 d8be
00000230: 9ca3 97be f3ac a63d e54d a03e 00b6 9cbd
00000240: acdc 683d f122 133e b6ca 96be 900c fcbc
00000250: bb84 71be 5865 dfbd c342 b53d 120f b73b
00000260: 41d2 ebbd 5c57 e43e 656b 9f3e f5c3 5cbe
00000270: c293 e13e 9db2 c53e 785e c63e 9399 d83e
00000280: 1a7e 173d 2e50 cb3e e893 d1be 200c 053e
00000290: 9cfa 04be a820 49bd 278b 913d 5218 8e3e
000002a0: 24c6 07be 9c80 8e3d e1f8 b03d 5eb7 87be
000002b0: 280a f83d a0b3 ee3d 91e7 18bd a6a1 cc3e
000002c0: 1bfe 72be 8e7d d53e a900 c9bd 461e 7b3e
000002d0: d359 c9be 50a3 c9bc 0dd5 893e 7e7f ae3e
000002e0: 848e 9ebe 56d6 153e 930b a4be b073 4a3c
000002f0: d2a8 25bc 0b21 c63e f339 a93d d22f 09be
00000300: 4f4a 603d ee25 1b3e 5cd2 ab3c 0262 85be
00000310: 15e6 153e 3a66 5abe ced3 76bc d340 073e
00000320: 4484 b73e 8dfa 823e 9153 c33e 8425 b03e
00000330: 004f 903c ef7f 443e ec67 c2be af11 bb3d
00000340: 76e2 ae3e 5ff3 93be 3899 4abc 6714 dc3e
00000350: e1c8 793e 10d4 04bd 9c53 e9bd 4683 5fbe
00000360: fc87 50be 30cb 743e c62b 76bd dc50 bc3e
00000370: 182f f3bd a392 51be 3bcd d2be e03c 783d
00000380: c412 67bd 7ec8 c63d 4167 6b3e ea3e 953e
00000390: 2a3f c03e 0a75 88bc 7003 8bbd 1870 63be
000003a0: d4ee a9be a1c8 82bd 5d81 cf3d 9119 90be
000003b0: 0737 9dbe 0906 abbe ef16 b1be 03d4 8abe
000003c0: ece5 fdbd b27d 173d 3a28 2cbe b3fe 54be
000003d0: a2a0 babe b499 66be f894 c9be 10a3 f3bd
000003e0: 2d67 223e 7068 ccbc 31f0 8b3e db9e c03d
000003f0: 2d8c ab3d c451 8fbe c0ee d7bb b9a8 7d3e

encoder.2.weight f4 [256, 256]
0.05586708 -0.0462461 0.020746756 0.059875626 0.042602114 -0.03732834 -0.04144607 0.0055467836
-0.05972302 -0.003932819 -0.03777822 -0.062434487 0.06221758 0.04572314 0.05779281 -0.057023667
0.050993092 -0.007711441 -0.020451024 0.009130608 0.061317455 0.046390615 -0.016672025 -0.016438916
0.016877472 0.0060142353 0.06244723 -0.02255326 -0.06326643 -0.009133482 -0.04861283 0.005766771
-0.028844066 -0.050927974 0.009919964 -0.045995016 -0.019168386 0.036899813 0.027712317 0.035361085
-0.00952309 -0.007984127 0.047867525 0.018047433 0.05799693 -0.003792954 -0.04327579 0.06023314
0.053815678 0.0058489465 0.0060889316 0.025041983 -0.019083591 0.04622058 -0.0055417693 0.04451352
0.0022302738 -0.025938544 0.01563561 0.029220387 -0.017673679 -0.050508812 0.06087389 -0.024703203
0.022449784 0.059327923 -0.0195988 0.024699504 0.04731346 0.02832458 0.046046425 0.0071932087
0.018427424 0.0326297 -0.047456905 -0.030712254 -0.067355305 0.053575724 0.010326937 -0.008378893
0.0269401 -0.05581513 -0.018268362 -0.0413204 0.0003912598 -0.016132565 -0.0006457825 0.06925134
-0.011582962 0.052622586 -0.06394004 -0.029762171 -0.0018225489 0.023171494 0.062085785 0.029449105
0.061127927 -0.016809916 0.0019741065 -0.016771324 0.014572157 0.012624103 0.01163184 0.0026572421
-0.01341553 0.047762103 -0.0605602 0.020189285 0.023718735 -0.043564215 0.007885568 -0.04186487
0.035162568 0.05650723 -0.046549737 -0.018351313 -0.042602956 0.060761947 -0.028722713 0.016311271
0.001989575 0.04298603 0.03247448 -0.006031745 0.049823236 0.0016508646 -0.005146349 -0.04103119
-0.0080973515 -0.06301188 0.03451839 -0.055527054 0.036704686 -0.00054494035 0.06289792 0.06183727
-0.04795138 -0.013541406 -0.002638149 0.012705335 -0.03510669 -0.036633026 0.066999316 0.009699769
-0.018850965 0.041266248 0.03253504 -0.041876286 0.022564285 -0.01836317 -0.02718133 -0.012001236
0.000246309 -0.055772934 0.03920882 -0.01823854 -0.058945306 -0.04928029 0.05467585 -0.050643194
0.035044964 0.02210293 -0.039498173 0.04361344 -0.006967701 -0.036970854 0.05683021 -0.06415075
-0.04378905 -0.028158111 -0.044380885 -0.004549898 -0.01933823 0.0028853882 0.005433676 0.060707368
0.006544262 -0.0073634973 -0.006342386 -0.04346504 -0.025829425 0.03164175 -0.0262813 -0.010663338
-0.031496234 0.02402949 0.030427106 -0.01208412 -0.024479607 0.01906619 0.01301041 0.035818554
-0.06761592 -0.061858002 0.0676181 0.0013863381 -0.017486116 0.025906935 -0.049583156 -0.040948637
-0.0021882346 -0.051450487 0.021236017 0.024792634 0.028694434 -0.06611744 0.05950284 -0.02821652
-0.046083994 0.06392725 0.013343241 -0.027853396 -0.01417767 -0.015804164 -0.052847236 -0.046763316
0.025161698 -0.004927846 0.042350758 -0.042052507 0.04233805 -0.049594358 0.010334246 0.017489105
-0.00047163235 0.021075848 0.044520702 0.044498023 0.009146598 -0.03673558 0.018308029 0.028423212
0.00331629 0.06314991 -0.034428522 -0.023928426 0.016855108 0.03430035 -0.013548866 0.055937044
0.022843923 0.03580483 0.033760227 -0.051019534 -0.05805008 -0.057265133 -0.02059748 0.0012144893
0.03777973 -0.048592 0.010823051 -0.01999818 -0.0016395751 -0.032251775 -0.04810632 -0.04212551
00000000: e1d4 643d 8d6c 3dbd 1af5 a93c 2540 753d
00000010: 8e7f 2e3d 9ae5 18bd 5bc3 29bd cbc1 b53b
00000020: 20a0 74bd e0de 80bb 56bd 1abd 4ebb 7fbd
00000030: dcd7 7e3d 3048 3b3d 27b8 6c3d a691 69bd
00000040: 22de 503d 41b0 fcbb e888 a7bc 8c98 153c
00000050: 0328 7b3d 1604 3e3d c593 88bc e8aa 86bc
00000060: a042 8a3c 1013 c53b abc8 7f3d 9dc1 b8bc
00000070: d491 81bd 9aa4 15bc 3f1e 47bd 2ef7 bc3b
00000080: 644a ecbc da99 50bd 5887 223c 4565 3cbd
00000090: 0507 9dbc 4224 173d f104 e33c c9d6 103d
000000a0: bc06 1cbc dbcf 02bc bd10 443d 36d8 933c
000000b0: 308e 6d3d 3593 78bb f441 31bd 06b7 763d
000000c0: d46d 5c3d 85a8 bf3b a985 c73b d824 cd3c
000000d0: 3155 9cbc ca51 3d3d bb97 b5bb cf53 363d
000000e0: c929 123b 127d d4bc 4016 803c 985f ef3c
000000f0: 64c8 90bc 54e2 4ebd e656 793d 5f5e cabc
00000100: 9ce8 b73c d601 733d aa8d a0bc 9d56 ca3c
00000110: c2cb 413d f308 e83c 2d9b 3c3d 02b5 eb3b
00000120: 1cf5 963c b8a6 053d 2c62 42bd 4498 fbbc
00000130: 94f1 89bd 3872 5b3d 5032 293c a047 09bc
00000140: 7cb1 dc3c 689e 64bd 88a7 95bc 943f 29bd
00000150: 0022 cd39 7128 84bc bb49 29ba a6d3 8d3d
00000160: 77c6 3dbc c88a 573d fff2 82bd cccf f3bc
00000170: 98e2 eeba 25d2 bd3c aa4d 7e3d 403f f13c
00000180: 4761 7a3d f3b4 89bc 0360 013b 0464 89bc
00000190: 0ec0 6e3c 53d5 4e3c 7993 3e3c 2025 2e3b
000001a0: d0cc 5bbc 32a2 433d f90d 78bd 0064 a53c
000001b0: cb4d c23c 6470 32bd 7832 013c 7f7a 2bbd
000001c0: a006 103d 2074 673d f0aa 3ebd 7e55 96bc
000001d0: 7080 2ebd 85e1 783d e54b ebbc 379f 853c
000001e0: 8863 023b 1f12 303d f603 053d f2a5 c5bb
000001f0: 7313 4c3d d361 d83a b4a2 a8bb 5210 28bd
00000200: c1aa 04bc 5f0c 81bd 2863 0d3d 5670 63bd
00000210: a757 163d 54da 0eba a0d0 803d 1449 7d3d
00000220: ab68 44bd c6dc 5dbc cce4 2cbb 0a2a 503c
00000230: 08cc 0fbd 830c 16bd f036 893d c8eb 1e3c
00000240: 576d 9abc cc06 293d 7643 053d 7886 2bbd
00000250: bcd8 b83c 5c6e 96bc 61ab debc d5a0 44bc
00000260: 0923 8139 2972 64bd 6d99 203d fe68 95bc
00000270: a270 71bd 21da 49bd c9f3 5f3d 3d6f 4fbd
00000280: 4f8b 0f3d 3411 b53c d6c8 21bd 02a4 323d
00000290: 5051 e4bb c06e 17bd cbc6 683d 7861 83bd
000002a0: 265c 33bd d7ab e6bc bbc8 35bd 5017 95bb
000002b0: 356b 9ebc c818 3d3b fa0c b23b 4aa8 783d
000002c0: 4071 d63b 7e49 f1bb cad3 cfbb 6608 32bd
000002d0: 3b98 d3bc c89a 013d e14b d7bc 48b5 2ebc
000002e0: 3202 01bd 7ed9 c43c 4442 f93c 79fc 45bc
000002f0: 7589 c8bc b330 9c3c 9d29 553c 7ab6 123d
00000300: 377a 8abd d15e 7dbd 5c7b 8a3d cab5 b53a
00000310: 0b3f 8fbc c83a d43c b517 4bbd c2b9 27bd
00000320: 7c68 0fbb bfbd 52bd 28f7 ad3c ec19 cb3c
00000330: 9710 eb3c 9568 87bd 40b9 733d 5526 e7bc
00000340: 92c2 3cbd 4aec 823d 9c9d 5a3c ce2c e4bc
00000350: 7549 68bc bc77 81bc 5876 58bd e48a 3fbd
00000360: e81f ce3c c579 a1bb fd77 2d3d 403f 2cbd
00000370: aa6a 2d3d 7423 4bbd f850 293c 5045 8f3c
00000380: 6c45 f7b9 42a7 ac3c 575b 363d 8f43 363d
00000390: 9ddb 153c 0c78 16bd b8fa 953c ccd7 e83c
000003a0: 1d56 593b bd54 813d ec04 0dbd 8c05 c4bc
000003b0: b913 8a3c 867e 0c3d 10fc 5dbc 3e1e 653d
000003c0: 2e23 bb3c 16a8 123d 2a48 0a3d dcf9 50bd
000003d0: ecc5 6dbd d88e 6abd 0cbc a8bc 802f 9f3a
000003e0: ebbe 1a3d 6808 47bd 2b53 313c 39d3 a3bc
000003f0: 03e7 d6ba 701a 04bd 220b 45bd cc8b 2cbd

encoder.2.bias f4 [256]
0.019667584 -0.04830092 -0.030829431 -0.02578049 -0.034817047 -0.048512824 0.0017116633 0.055795226
0.017724875 -0.034121707 -0.02099666 -0.053202327 0.03607182 0.012667917 0.041920826 0.053873513
-0.06632147 -0.061348535 -0.026206316 0.024865601 0.04070037 -0.04512362 -0.039007634 -0.048893828
-0.022573426 0.035967153 -0.003822508 -0.04056132 0.059642658 0.020570163 -0.019997036 0.04872402
-0.010292672 -0.029004326 0.021267358 -0.023024648 -0.040562153 -0.030170975 -0.03515589 0.05562057
0.019298304 0.013027093 -0.033634484 0.027810581 -0.040430136 -0.024134569 -0.030857386 -0.057844505
-0.025231257 0.036728416 -0.015849426 0.026798733 -0.011357099 -0.034906168 -0.014304926 0.021458967
0.07107323 -0.059204496 0.031976677 0.038437515 -0.014870346 -0.041358292 0.05757425 -0.027387299
-0.0578442 -0.019713283 0.059527047 0.05944285 0.03795221 0.029530926 0.0051256567 0.013436116
0.050400265 0.0023866154 -0.062168382 0.0064110924 -0.03858959 -0.046203986 -0.020052945 0.015102611
0.06175877 0.045096837 -0.0095417965 0.015064422 -0.0045601577 0.044953432 0.05467849 -0.051371735
-0.038174525 0.06722003 0.033296544 -0.05763838 0.02638667 -0.018535256 -0.03153521 -0.04890424
0.044499833 -0.05269037 -0.035815876 0.054946378 -0.026161617 0.047223575 0.010882353 0.04825078
-0.049106814 0.058032632 0.009327052 -0.027404204 0.053457797 0.014071941 -0.049522266 -0.026106447
-0.016934127 -0.048412543 0.033243 -0.04685875 -0.036063127 0.012554282 0.024999565 0.0059912074
-0.058413193 -0.002004328 0.014496028 0.05545335 0.06568309 -0.039290663 -0.0566822 -0.025514733
-0.006486036 0.010415282 -0.008731805 -0.011738399 0.020395495 0.033540532 -0.035857633 0.017701421
-0.04505456 0.016924355 0.045494586 0.05343504 0.015258965 -0.049752314 0.005120373 -0.025214823
-0.010456245 0.0036008358 -0.01652264 0.048504665 0.0044854255 0.012682289 -0.014279392 0.020730704
0.025936231 0.056155425 -0.016612789 0.05614697 0.010155862 -0.0032927108 0.047544908 0.037388116
-0.05741071 0.04456521 -0.028729176 0.016780078 -0.043839857 -0.060204603 -0.05386597 0.027598001
0.04911521 -0.03999241 0.015462443 0.057147115 0.05980232 0.017728914 0.04954703 -0.049321696
-0.016911896 0.04813107 0.008871509 0.013928756 0.04645124 -0.060871422 -0.05270724 -0.01424015
-0.050562453 0.01220389 -0.037534654 0.061254673 0.016486006 0.024036676 -0.021946507 -0.040055946
-0.025256095 0.0592186 0.057125278 -0.049306538 0.027948355 -0.0071287192 0.050513 0.034128353
0.039963078 0.007958825 0.020045826 0.03360381 0.012971919 0.053729452 -0.01042668 -0.06058923
-0.016499102 0.0536313 -0.041143253 0.039595 -0.056218468 0.05632393 -0.008723487 -0.061758608
0.052052077 -0.04624816 0.049466647 0.006225385 -0.010904096 0.02735007 0.0060222624 -0.056620296
0.025239147 0.019372933 -0.024535013 0.039822794 -0.04189799 -0.022041656 0.04914984 -0.032258067
-0.04895196 -0.0052689537 -0.017262895 0.058024466 -0.042967457 -0.011592977 0.015455069 -0.012175819
-0.040232196 0.037392043 0.003351799 0.048620723 -0.042871118 0.023063924 0.0009521808 -0.025263749
-0.014677234 -0.04103399 0.011478212 -0.0610027 -0.0016118566 -0.05255668 0.01959058 -0.0030463377
00000000: ea1d a13c 2fd7 45bd 018e fcbc 9b31 d3bc
00000010: 529c 0ebd 62b5 46bd e459 e03a 8989 643d
00000020: c233 913c 34c3 0bbd 3001 acbc afea 59bd
00000030: 0bc0 133d 188d 4f3c 2cb5 2b3d 79aa 5c3d
00000040: 8dd3 87bd 9a48 7bbd a1ae d6bc f2b2 cb3c
00000050: 6eb5 263d 8cd3 38bd 78c6 1fbd e544 48bd
00000060: e8eb b8bc 4b52 133d 0b83 7abb a023 26bd
00000070: dc4b 743d c282 a83c d3d0 a3bc d792 473d
00000080: 98a2 28bc 7b9a edbc e238 ae3c 309e bcbc
00000090: 8024 26bd 1f29 f7bc 9fff 0fbd 65d2 633d
000000a0: 7a17 9e3c 976f 553c 50c4 09bd 04d3 e33c
000000b0: 129a 25bd dcb5 c5bc a1c8 fcbc 5cee 6cbd
000000c0: c8b1 cebc 8970 163d a8d6 81bc 0489 db3c
000000d0: 2013 3abc c5f9 0ebd 355f 6abc b7ca af3c
000000e0: d78e 913d 6a80 72bd faf9 023d a870 1d3d
000000f0: c0a2 73bc 5067 29bd fad2 6b3d 545b e0bc
00000100: 0aee 6cbd c07d a1bc a2d2 733d 597a 733d
00000110: c773 1b3d d7ea f13c 20f5 a73b 2823 5c3c
00000120: 8270 4e3d c368 1c3b 46a4 7ebd 2414 d23b
00000130: 1e10 1ebd 6440 3dbd 1346 a4bc f170 773c
00000140: c4f6 7c3d 76b7 383d 3255 1cbc c4d0 763c
00000150: 606d 95bb 1721 383d 8df6 5f3d 2b6b 52bd
00000160: e45c 1cbd a8aa 893d f561 083d 3916 6cbd
00000170: dc28 d83c 40d7 97bc 102b 01bd d04f 48bd
00000180: 7545 363d dbd1 57bd abb3 12bd 740f 613d
00000190: e350 d6bc 826d 413d e64b 323c 9ca2 453d
000001a0: 3a24 49bd a0b3 6d3d 7ed0 183c c87e e0bc
000001b0: 90f6 5a3d 008e 663c dcd7 4abd 30dd d5bc
000001c0: 70b9 8abc 3b4c 46bd d029 083d f6ee 3fbd
000001d0: eeb6 13bd 7ab0 4d3c e3cb cc3c e451 c43b
000001e0: ac42 6fbd 0b5b 03bb c080 6d3c 0d23 633d
000001f0: db84 863d 3fef 20bd 982b 68bd 4604 d1bc
00000200: d088 d4bb dca4 2a3c d80f 0fbc 6a52 40bc
00000210: 7414 a73c cc61 093d 74df 12bd 9202 913c
00000220: 218b 38bd f2a4 8a3c 8858 3a3d b3de 5a3d
00000230: bd00 7a3c 15c9 4bbd cdc8 a73b 518f cebc
00000240: ac50 2bbc 00fc 6b3b 7d5a 87bc d4ac 463d
00000250: 7afa 923b 60c9 4f3c 1cf4 69bc 70d3 a93c
00000260: 3878 d43c 3b03 663d 8b17 88bc 5dfa 653d
00000270: c664 263c 85ca 57bb 73be 423d 4824 193d
00000280: 7e27 6bbd 028a 363d 7359 ebbc 6076 893c
00000290: 6c91 33bd 1a99 76bd 90a2 5cbd 3415 e23c
000002a0: 082d 493d 15cf 23bd 3056 7d3c 1813 6a3d
000002b0: 47f3 743d 3a3c 913c d4f1 4a3d 8c05 4abd
000002c0: d18a 8abc 1625 453d ce59 113c 7035 643c
000002d0: a843 3e3d 5054 79bd 8ce3 57bd 854f 69bc
000002e0: 931a 4fbd d3f2 473c f0bd 19bd 2ee6 7a3d
000002f0: a90d 873c 90e8 c43c 29c9 b3bc b411 24bd
00000300: dfe5 cebc 348f 723d 32fc 693d a7f5 49bd
00000310: f3f3 e43c 0898 e9bb b8e6 4e3d 2cca 0b3d
00000320: 53b0 233d bb65 023c 2537 a43c 26a4 093d
00000330: 2c88 543c 6a13 5c3d aad4 2abc 6a2c 78bd
00000340: 2029 87bc 7eac 5b3d d485 28bd 5e2e 223d
00000350: 5645 66bd ecb3 663d f5ec 0ebc 98f6 7cbd
00000360: 8f34 553d b66e 3dbd 8a9d 4a3d 50fe cb3b
00000370: 18a7 32bc 410d e03c 6656 c53b afea 67bd
00000380: 54c2 ce3c fcb3 9e3c a7fd c8bc 3a1d 233d
00000390: 3a9d 2bbd b490 b4bc 5851 493d 0921 04bd
000003a0: da81 48bd 30a7 acbb ea6a 8dbc 10ab 6d3d
000003b0: a5fe 2fbd 78f0 3dbc 4237 7d3c 167d 47bc
000003c0: 84ca 24bd 6628 193d dba9 5b3b 8626 473d
000003d0: a099 2fbd 8ef0 bc3c c69b 793a ecf5 cebc
000003e0: c878 70bc 4213 28bd 1c0f 3c3c f8dd 79bd
000003f0: ef44 d3ba ac45 57bd 6d7c a03c 11a5 47bb

policy_head.weight f4 [4, 256]
0.029381182 -0.05528395 -0.039773367 0.02141248 -0.018006783 0.024011724 0.046705402 0.021325242
0.013599549 0.057306275 -0.03214018 0.014474253 -0.037373733 0.031961158 -0.022217605 0.007419938
-0.022469897 0.010586306 0.026739582 -0.052603707 -0.03933664 -0.054464463 0.056481138 0.026320603
0.04997652 0.014093955 -0.00018743472 0.057393096 -0.017161604 0.052154604 0.051248692 -0.046538863
0.013864711 0.0029679453 -0.014024402 0.020005703 0.050556187 0.050455805 -0.027428284 0.046452396
0.06115035 -0.035661977 -0.06510096 0.05347254 0.014885896 0.050477393 0.011767139 -0.05836912
-0.053659864 0.0010432937 -0.044892415 0.015148613 0.023593701 -0.0032078377 0.0648414 0.009110554
0.06159732 -0.04057496 0.004356003 -0.0034727699 0.053357914 -0.038792945 -0.002021306 -0.04679565
-0.060129873 0.05790299 -0.054312084 0.045036383 -0.013011239 0.048932128 0.045537613 0.036264643
-0.015546264 0.011304207 -0.04349386 -0.036926113 0.028666612 0.0046352297 0.03781147 0.057807107
-0.043286942 -0.0025779975 -0.011311881 0.025127452 0.019565605 0.048764553 -0.05227882 0.0590141
-0.010267466 -0.036308635 -0.033685923 0.039018 -0.0010141209 0.03192634 0.04096838 0.02774582
0.024543036 -0.025368413 0.052283596 -0.0020809472 -0.03831175 0.051654086 -0.013996586 -0.043440312
-0.026598856 -0.03871381 -0.045909245 -0.027691096 0.012465164 0.0013515055 0.027010493 -0.008020334
0.035348415 -0.054694064 -0.05738405 -0.04268983 0.042308874 0.047765 -0.046905726 -0.046729367
-0.028929567 -0.014324901 -0.0042033717 0.0055540213 -0.027274664 -0.03294326 -0.04020459 0.027435191
-0.041097343 -0.0068103108 -0.002079472 0.04158288 0.012161523 0.06106162 -0.035012692 0.0078080283
0.05442712 -0.050821796 0.019351393 -0.038264986 -0.04645553 -0.03416113 0.020590747 0.03533935
-0.033047672 -0.011939324 0.026222937 -0.0027466565 -0.015032345 -0.014448356 0.01651029 -0.03572442
-0.0057842433 0.033012237 -0.05387924 -0.013955332 -0.066356175 -0.056802362 -0.0011313403 0.011261277
0.0348922 -0.013490578 0.005701829 -0.008125298 0.027877145 -0.019514732 -0.037689086 -0.03656864
0.014053918 -0.018142082 -0.016261362 -0.01001405 0.06207279 0.05927765 0.029383967 -0.03732378
0.00032897343 0.0362487 0.0038477373 0.009472512 -0.052199326 -0.018420577 -0.030885762 0.052428663
-0.015626004 0.043847572 -0.029967966 0.018635448 -0.05890699 -0.05394098 -0.045094885 0.0016085751
-0.03358682 0.015441798 -0.01926428 -0.04931092 -0.04775795 0.011090314 -0.015972191 0.054049492
0.011105913 -0.033188585 -0.0041149766 -0.0437057 -0.04689484 0.0061159823 -0.05912676 0.020586967
0.0013101399 -0.055575524 -0.029623546 -0.055451073 0.033128887 0.040568948 -0.05599243 -0.047513228
-0.04070105 0.022551142 -0.016047655 -0.0036482215 -0.011986869 0.060520653 0.007093032 -0.02493215
-0.0034492055 0.0383543 -0.026971292 0.005289614 -0.05491645 0.023691766 -0.052659653 0.014225752
0.05796115 -0.00402312 -0.03088517 -0.0069099227 0.028155634 -0.041464493 0.027364697 -0.006620421
-0.060862474 -0.042174265 -0.04408266 -0.032672144 0.059292544 -0.00018095555 0.026080688 -0.0039200727
-0.036058612 -0.0034269644 0.057533816 -0.019459367 0.05723091 -0.056820564 -0.06057496 -0.031075856
00000000: ceb0 f03c 6c71 62bd 66e9 22bd 3a69 af3c
00000010: f682 93bc 3cb4 c43c 2a4e 3f3d 46b2 ae3c
00000020: a5d0 5e3c fcb9 6a3d 6ca5 03bd 6b25 6d3c
00000030: 3315 19bd b4e9 023d b201 b6bc f422 f33b
00000040: ca12 b8bc 3072 2d3c f80c db3c fc76 57bd
00000050: 751f 21bd 2116 5fbd c458 673d 4e9e d73c
00000060: 2eb4 4c3d 55ea 663c 208a 44b9 0615 6b3d
00000070: 7e96 8cbc 11a0 553d 26ea 513d 899f 3ebd
00000080: d028 633c dc81 423b 9bc6 65bc 00e3 a33c
00000090: 0114 4f3d bfaa 4e3d 48b1 e0bc de44 3e3d
000000a0: ca78 7a3d 4b12 12bd a753 85bd 0606 5b3d
000000b0: f9e3 733c 62c1 4e3d f5ca 403c 7514 6fbd
000000c0: 72ca 5bbd 21bf 883a 1ce1 37bd e331 783c
000000d0: 9447 c13c 963a 52bb 91cb 843d 6f44 153c
000000e0: 794d 7c3d ee31 26bd cdbc 8e3b 6997 63bb
000000f0: d48d 5a3d 5ae5 1ebd e377 04bb ccac 3fbd
00000100: be4a 76bd b02b 6d3d 5976 5ebd 1278 383d
00000110: 172d 55bc 0e6d 483d a685 3a3d 3c8a 143d
00000120: c2b5 7ebc 4835 393c 9e26 32bd d63f 17bd
00000130: 3ed6 ea3c 20e3 973b 33e0 1a3d 25c7 6c3d
00000140: a64d 31bd 9ff3 28bb 7855 39bc 16d8 cd3c
00000150: 0c48 a03c 57bd 473d 5122 56bd c5b8 713d
00000160: e038 28bc 5db8 14bd 40fa 09bd 57d1 1f3d
00000170: 40ec 84ba 32c5 023d 76ce 273d 344b e33c
00000180: 7a0e c93c 6bd1 cfbc 5327 563d 8060 08bb
00000190: c8ec 1cbd 3c93 533d f051 65bc 78ee 31bd
000001a0: d8e5 d9bc 5f92 1ebd 550b 3cbd 70d8 e2bc
000001b0: b03a 4c3c 0025 b13a 1c45 dd3c b867 03bc
000001c0: 80c9 103d e206 60bd 8a0b 6bbd 88db 2ebd
000001d0: 124c 2d3d 3ca5 433d 3820 40bd 4b67 3fbd
000001e0: b3fd ecbc fdb2 6abc 70bc 89bb 82fe b53b
000001f0: 1e6f dfbc 83ef 06bd 91ad 24bd c4bf e03c
00000200: b055 28bd 0729 dfbb c047 08bb cf52 2a3d
00000210: 2041 473c c01b 7a3d 7869 0fbd 7dda ff3b
00000220: f9ee 5e3d 842a 50bd d086 9e3c bfbb 1cbd
00000230: 2748 3ebd 8bec 0bbd edad a83c ffbf 103d
00000240: ff5c 07bd 289d 43bc 7cd1 d63c 4001 34bb
00000250: 3a4a 76bc ccb8 6cbc 9640 873c c553 12bd
00000260: c089 bdbb d737 073d 7ab0 5cbd e8a4 64bc
00000270: bfe5 87bd 98a9 68bd 7b49 94ba 3881 383c
00000280: 20eb 0e3d 9607 5dbc 69d6 ba3b f81f 05bc
00000290: 9c5e e43c 5cdd 9fbc df5f 1abd 00c9 15bd
000002a0: 6842 663c b49e 94bc 8c36 85bc f811 24bc
000002b0: 0a40 7e3d 1fcd 723d a5b6 f03c d2e0 18bd
000002c0: 117a ac39 8479 143d 522a 7c3b 9832 1b3c
000002d0: f6ce 55bd c0e6 96bc 2304 fdbc 70bf 563d
000002e0: 1b02 80bc 8399 333d 617f f5bc 5ea9 983c
000002f0: 7548 71bd 38f1 5cbd 6ab5 38bd d3d6 d23a
00000300: 5592 09bd 98ff 7c3c 20d0 9dbc 3ffa 49bd
00000310: d79d 43bd 26b4 353c 1dd8 82bc 0063 5d3d
00000320: 93f5 353c c1f0 07bd edd6 86bb c004 33bd
00000330: ce14 40bd 9468 c83b e72e 72bd 00a6 a83c
00000340: 00b9 ab3a 29a3 63bd 14ad f2bc aa20 63bd
00000350: 28b2 073d a02b 263d 5158 65bd 3b9d 42bd
00000360: 25b6 26bd 2cbd b83c 5f76 83bc 0017 6fbb
00000370: 9364 44bc 81e4 773d aa6c e83b 823e ccbc
00000380: 110c 62bb 6619 1d3d e6f2 dcbc 8054 ad3b
00000390: 12f0 60bd 3c15 c23c a6b1 57bd 2113 693c
000003a0: ac68 6d3d 60d4 83bb e502 fdbc a26c e2bb
000003b0: a5a6 e63c acd6 29bd ee2b e03c 1ef0 d8bb
000003c0: ee4a 79bd ecbe 2cbd 0590 34bd 3ad3 05bd
000003d0: bddc 723d e3be 3db9 2ba7 d53c f473 80bb
000003e0: 32b2 13bd ec96 60bb 94a8 6b3d 4069 9fbc
000003f0: f56a 6a3d aebc 68bd 731d 78bd cb92 febc

policy_head.bias f4 [4]
0.01681964 -0.029105617 0.06326857 0.024703205
00000000: 57c9 893c e76e eebc f492 813d 605e ca3c
