runs/ppo_value.pt (torch, 271469 bytes, 5 tensors)

network.0.weight f4 [256, 3]
0	0xbeb7f731	-0.3593078
1	0x3f06996f	0.5257787
2	0xbd2a5404	-0.04158403
3	0x3cb2ff23	0.021850174
4	0x3eb1c762	0.3472243
5	0x3ef872d1	0.48525098
6	0xbf136719	-0.5757919
7	0xbc58933c	-0.013218697
8	0xbda2230c	-0.07916841
9	0xbea291b0	-0.31751776
10	0xbf124af3	-0.57145613
11	0xbc9d5746	-0.019206654
12	0xbee8d4d6	-0.4547488
13	0x3d8a85dd	0.06763814
14	0xbed1cfea	-0.40978938
15	0xbe89c22e	-0.2690596
16	0x3ec47b03	0.383751
17	0x3f052985	0.5201648
18	0xbed605d5	-0.41801324
19	0x3ee99f86	0.4562952
20	0xbef21e5b	-0.47288784
21	0x3db19585	0.08671097
22	0xbdcbcc8f	-0.09951126
23	0xbeb8c936	-0.36091012
24	0xbe25f6af	-0.16207384
25	0xbe29b6ac	-0.1657359
26	0xbea24780	-0.31695175
27	0xbde373d4	-0.11106077
28	0xbbc0866d	-0.0058754
29	0xbe7a6bcd	-0.24455185
30	0xbda61dac	-0.08111128
31	0xbdb1b808	-0.08677679
32	0xbe8ce011	-0.275147
33	0xbe8775e7	-0.2645714
34	0x3e2b0482	0.16700938
35	0x3ea3e29e	0.32008833
36	0x3e3cac96	0.18425211
37	0xbde4d512	-0.111734524
38	0xbf116b6c	-0.5680454
39	0x3d023cae	0.03179615
40	0x3c87c22d	0.016572082
41	0xbeb8160d	-0.35954323
42	0x3edc1233	0.42982635
43	0xbecae5cc	-0.39628446
44	0x3f06c13a	0.5263859
45	0x3cf404e3	0.029787486
46	0xbd5208d5	-0.051277954
47	0x3ee990c6	0.45618266
48	0x3eb824b3	0.359655
49	0x3f04ae28	0.5182824
50	0x3e663d54	0.22484332
51	0xbe889eae	-0.26683563
52	0x3ef088d5	0.46979395
53	0x3e43920c	0.19098681
54	0x3e3ad64b	0.18245809
55	0xbefaa842	-0.48956496
56	0xbd33e5c9	-0.043920312
57	0xbdb816dd	-0.08988736
58	0x3ec6a18e	0.3879513
59	0x3ee834e7	0.4535286
60	0xbed6221c	-0.41822898
61	0x3f0cb83a	0.5496861
62	0xbcbe76d1	-0.023250015
63	0xbef9475d	-0.48687258
64	0xbda069b2	-0.0783266
65	0xbdc0bc6d	-0.09410939
66	0xbe186f80	-0.14886284
67	0xbc14da46	-0.009085244
68	0x3ec904ac	0.39261377
69	0xbe784841	-0.24246313
70	0xbe674fd7	-0.2258905
71	0x3f0cefe6	0.55053556
72	0xbe7d8952	-0.24759415
73	0xbf0af77c	-0.5428388
74	0x3e913bc5	0.28365913
75	0x3f08d65b	0.5345208
76	0x3ee7a946	0.45246333
77	0xbeb66423	-0.35623273
78	0xbe3e1afb	-0.1856498
79	0xbeb2bd13	-0.34909877
80	0x3e0c90e3	0.13727145
81	0x3d29a707	0.041419055
82	0xbebe81f3	-0.37208518
83	0x3f068f83	0.5256273
84	0x3eb6afd5	0.35681024
85	0xbc8561b0	-0.016281933
86	0xbe46241e	-0.19349715
87	0xbe6aee12	-0.22942379
88	0xbee012ff	-0.43764493
89	0x3e3bd8c4	0.18344408
90	0x3dff559a	0.12467499
91	0xbee5d8b9	-0.4489191
92	0xbe90dcde	-0.28293508
93	0x3e0f2821	0.13980152
94	0xbea39707	-0.31951162
95	0x3e5effb5	0.21777232
96	0x3d6c6067	0.057709124
97	0xbddb295a	-0.107012466
98	0x3f114993	0.5675289
99	0x3f0c49d9	0.5480018
100	0x3e6e4244	0.23267466
101	0xbe1712b1	-0.14753224
102	0xbea46a6f	-0.32112452
103	0x3e96ec8f	0.29477355
104	0x3da7d20a	0.08194359
105	0x3e218bfc	0.15776056
106	0xbf074802	-0.5284425
107	0xbea11a39	-0.3146532
108	0xbe9f540e	-0.31118816
109	0x3efee56b	0.49784407
110	0xbe3330ea	-0.17499128
111	0x3e5bbb73	0.21458225
112	0x3f0c0b5e	0.54704845
113	0x3e0289ef	0.1274793
114	0x3a01aff3	0.0004947178
115	0xbee50f9c	-0.44738472
116	0xbf080170	-0.53127193
117	0xbeae1c2f	-0.34005877
118	0xbefdd4d7	-0.49576446
119	0x3ed1ae77	0.4095342
120	0x3e24971d	0.1607327
121	0x3abdc45f	0.0014478079
122	0x3f0194b8	0.5061755
123	0xbebb1b04	-0.3654405
124	0x3f00bc5f	0.5028743
125	0x3ecc0b9c	0.39852607
126	0x3e183a54	0.14866
127	0xbef5fd18	-0.48044658
128	0xbed75966	-0.42060393
129	0xbe4b582c	-0.19857854
130	0xbed061ad	-0.4069952
131	0x3ecda393	0.4016386
132	0x3cd2e5bd	0.025744313
133	0xbe13fba8	-0.14451468
134	0xbeead420	-0.45864964
135	0x3db8ec93	0.09029498
136	0x3ef9f34c	0.48818433
137	0x3e3dc94e	0.18533823
138	0xbeec7293	-0.46181163
139	0x3e27d545	0.1638995
140	0x3edcaf82	0.43102652
141	0x3f0aefc6	0.54272115
142	0x3e1b49ef	0.15164922
143	0x3f0788c2	0.5294305
144	0xbe69fb83	-0.2284985
145	0x3f0004de	0.50007427
146	0xbea30e96	-0.31847066
147	0x3e5c7f9a	0.21533051
148	0xbef2b603	-0.4740449
149	0x3eb52fe1	0.3538809
150	0x3e4c9d43	0.19981866
151	0xbea84b06	-0.32869738
152	0x3c0f85b4	0.008759905
153	0xbed771dd	-0.42079058
154	0x3ef898fc	0.48554218
155	0xbeb26eff	-0.34850308
156	0xbe82fdb4	-0.25584185
157	0x3dd8de8b	0.10589322
158	0xbebdab52	-0.3704477
159	0xbe1aeaf7	-0.15128694
160	0x3f0d1fb7	0.5512652
161	0xbee7183e	-0.45135683
162	0xbe033598	-0.12813413
163	0x3e5c58b1	0.21518208
164	0xbdb314a4	-0.08744171
165	0x3de93702	0.11387445
166	0x3eda0310	0.42580462
167	0xbed4db54	-0.41573584
168	0xbed84d59	-0.42246512
169	0x3eb2be92	0.3491102
170	0x3de46bcd	0.11153374
171	0x3f01b50d	0.50666887
172	0xbe3b3af1	-0.18284203
173	0xbedc46db	-0.43022808
174	0xbe596917	-0.21231495
175	0xbf137ddb	-0.57613915
176	0xbc68eab7	-0.014216117
177	0x3ef08831	0.46978906
178	0x3e8d5592	0.27604347
179	0x3ec24f05	0.37950912
180	0xbe02fd22	-0.12791875
181	0x3e3757be	0.17904565
182	0xbe363c97	-0.1779655
183	0xbea5a629	-0.32353333
184	0x3e4fdebc	0.2029981
185	0x3ee8eea8	0.4549458
186	0x3da75a04	0.08171466
187	0xbe924023	-0.28564557
188	0xbea08c24	-0.3135692
189	0xbd9c290d	-0.07625017
190	0xbeb680a0	-0.35645008
191	0x3eda63c9	0.42654255
192	0x3eef744c	0.46768415
193	0x3ec6ef62	0.3885451
194	0xbc1d0bc9	-0.009585329
195	0xbe1b96cd	-0.15194245
196	0xbe9ff561	-0.31241897
197	0xbda20366	-0.079108045
198	0x3d5b5eef	0.053557333
199	0xbe1753ce	-0.14778063
200	0x3e8e5cc2	0.27805144
201	0x3e2966a4	0.1654306
202	0x3df93d71	0.12169922
203	0x3e53c6ab	0.20681255
204	0x3e513899	0.20431747
205	0x3e708fe5	0.23492391
206	0x3eb0335b	0.3441418
207	0x3f12c514	0.5733197
208	0x3ea5bf78	0.32372642
209	0xbe3856ef	-0.18001913
210	0x3e778b2a	0.2417418
211	0xbe98907e	-0.2979774
212	0x3dddbd1d	0.10827086
213	0xbefac8cc	-0.4898132
214	0x3e784b65	0.2424751
215	0xbf0fce53	-0.561742
216	0xbea9d9a1	-0.3317385
217	0x3ed94019	0.42431715
218	0x3ecba02c	0.3977064
219	0xbefc40bc	-0.49268138
220	0xbe64ad39	-0.22331704
221	0x3ed38049	0.4130881
222	0xbee5e4ec	-0.44901216
223	0x3cb292dc	0.021798544
224	0xbeb47f23	-0.35253248
225	0x3f0bbc66	0.5458435
226	0xbe0a8940	-0.13528919
227	0x3a432e33	0.0007445544
228	0xbe939547	-0.28824827
229	0xbe8b33f2	-0.2718807
230	0x3d994a92	0.07484926
231	0x3ee95630	0.45573568
232	0xbecd94f0	-0.40152693
233	0xbe287905	-0.16452415
234	0xbc554976	-0.013018003
235	0x3f1236fa	0.5711514
236	0xbeba08ab	-0.36334738
237	0xbecc5411	-0.39907888
238	0x3ec9ed69	0.39438942
239	0x3d920a2c	0.071308464
240	0x3e1f3c8f	0.15550445
241	0xbef1f2e2	-0.47255617
242	0xbee0341a	-0.4378975
243	0x3c7f4d7e	0.01558244
244	0x3d8edc9d	0.069756724
245	0x3d3ec67e	0.046576016
246	0xbe1ad884	-0.15121657
247	0xbdecf9c9	-0.1157108
248	0x3ed9ee72	0.42564732
249	0x3dc98022	0.098388925
250	0x3daebdb0	0.08532274
251	0xbf11c480	-0.5694046
252	0x3e3974d1	0.18110968
253	0xbe46f27a	-0.19428435
254	0x3ef0c6ff	0.47026822
255	0x3edf232b	0.4358152

network.0.bias f4 [256]
0	0xbe98d31d	-0.29848567
1	0xbd45962a	-0.04823891
2	0x3c8b362c	0.016993605
3	0xbeae9a8a	-0.3410228
4	0x3e96fb2a	0.29488498
5	0x3ee22cc6	0.44174784
6	0x3ed8e35e	0.42360967
7	0xbd2ee563	-0.04269923
8	0xbe6bb444	-0.23017985
9	0x3eee3fda	0.4653309
10	0xbed944ec	-0.42435396
11	0xbe66b22b	-0.22528903
12	0xbe8ee4a8	-0.27908826
13	0xbf0ea4c2	-0.5572015
14	0xbeb90cf5	-0.36142698
15	0x3e9f9a26	0.31172293
16	0x3de3a1fa	0.11114879
17	0x3e0200c5	0.12695606
18	0x3ef8eec4	0.48619664
19	0xbee1efc7	-0.44128248
20	0xbf069a2b	-0.5257899
21	0xbeb5ba4c	-0.35493696
22	0xbdf8e21a	-0.121525005
23	0xbc7477e7	-0.014921165
24	0x3d2fb826	0.042900227
25	0xbf00999d	-0.50234395
26	0xbecfc53e	-0.4058017
27	0xbe609e64	-0.21935421
28	0x3ef7bb81	0.48385242
29	0x3e42561a	0.18978158
30	0x3ee99722	0.45623118
31	0x3e8d9fe6	0.27661055
32	0x3f12989f	0.5726413
33	0x3eca58b2	0.39520794
34	0x3eb5c6d7	0.35503265
35	0x3eda7d7d	0.42673865
36	0x3e85729e	0.26064008
37	0xbea830ca	-0.32849723
38	0xbe282995	-0.16422112
39	0x3f0babb2	0.5455886
40	0xbe9b04a3	-0.30276975
41	0xbe1bda7e	-0.15220067
42	0x3ee09985	0.43867126
43	0xbe3115c2	-0.17293456
44	0x3ed0506b	0.40686354
45	0x3ef61835	0.48065343
46	0xbec92d08	-0.3929217
47	0x3ee02cc1	0.43784145
48	0x3dcbfa0b	0.09959801
49	0xbe086088	-0.13318074
50	0x3ec2cd60	0.38047314
51	0x3e424373	0.18971042
52	0x3e53ebee	0.20695469
53	0xbeb6ac4a	-0.3567832
54	0x3e899789	0.26873425
55	0x3d109a4c	0.0353034
56	0x3e0853c8	0.1331321
57	0x3d4c470b	0.04987244
58	0xbe547175	-0.20746405
59	0xbe32eada	-0.17472401
60	0xbdc7ae04	-0.09749988
61	0xbed8150e	-0.42203563
62	0x3e8ca0a4	0.2746631
63	0x3ef360c0	0.47534752
64	0xbe9fa690	-0.31181765
65	0x3c03cf95	0.008045097
66	0xbef3c3b2	-0.4761024
67	0x3db310e5	0.08743457
68	0x3e5905ac	0.2119357
69	0x3ded6fa3	0.11593559
70	0x3eb8374e	0.35979694
71	0xbeeb0601	-0.45903018
72	0x3e60ec42	0.21965125
73	0xbe8f828e	-0.28029293
74	0x3f119b48	0.56877565
75	0xbf0b29dd	-0.54360753
76	0xbd895fc7	-0.06707721
77	0x3e4f0cf7	0.2021979
78	0x3e936fdc	0.2879628
79	0x3efb0192	0.49024636
80	0xbe988aab	-0.29793295
81	0xbe3e9ee4	-0.186153
82	0x3f047f27	0.5175652
83	0xbed1f975	-0.41010633
84	0x3ca7354d	0.020411158
85	0xb94a8987	-0.00019315454
86	0xbe81b3b6	-0.2533242
87	0x3dd7a3ff	0.10529327
88	0xbe00f40f	-0.12593101
89	0x3ebb9896	0.3663985
90	0xbef070ca	-0.4696105
91	0xbf12a42c	-0.57281756
92	0x3e2f1f0c	0.17101687
93	0x3d227439	0.03966162
94	0xbf0862a1	-0.53275496
95	0xbec24fec	-0.379516
96	0xbe843827	-0.2582409
97	0x3e5a480b	0.21316545
98	0xbe11c6ab	-0.14235942
99	0xbf04a729	-0.51817566
100	0x3db564a3	0.088570856
101	0x3d9664bc	0.07343432
102	0xbecb56f4	-0.39714777
103	0x3ea40f5c	0.32042968
104	0x3ec633e0	0.38711452
105	0xbd711349	-0.058856282
106	0x3e294030	0.16528392
107	0xbec224c4	-0.37918675
108	0x3ebbc369	0.36672524
109	0x3db8f569	0.09031183
110	0x3ef0e836	0.47052163
111	0x3f0fb676	0.5613779
112	0xbe974d95	-0.29551378
113	0x3e7b2b89	0.24528326
114	0x3dea1fe1	0.11431862
115	0xbe764d95	-0.24053033
116	0xbed9a7e5	-0.42510906
117	0x3eb47433	0.35244903
118	0xbeb3ee6e	-0.35142845
119	0x3ed2f2dc	0.41200912
120	0x3f0b80a5	0.5449317
121	0xbd85a49e	-0.06525539
122	0xbefdd26a	-0.49574596
123	0xbed2831e	-0.4111566
124	0xbe0d5145	-0.13800533
125	0xbe0e71f7	-0.13910662
126	0xbf0b6b55	-0.5446065
127	0x3e8df63b	0.2772692
128	0xbc44e83f	-0.012018262
129	0x3e533a1a	0.20627633
130	0xbe38ced7	-0.18047653
131	0xbea6fa26	-0.32612723
132	0x3f071025	0.5275901
133	0x3e0f7b16	0.14011797
134	0x3e169517	0.14705311
135	0x3ed271af	0.4110236
136	0x3e8a8478	0.2705419
137	0x3dd389db	0.10329028
138	0xbe8a7b5c	-0.2704724
139	0x3e3e1d2b	0.18565814
140	0x3ed74c4b	0.42050394
141	0x3efa86c9	0.48930958
142	0xbae2601c	-0.0017271074
143	0xbf09a87b	-0.53772706
144	0xbeaa9497	-0.3331649
145	0x3ea82c8e	0.32846493
146	0x3f08481c	0.5323503
147	0x3ebbf374	0.36709177
148	0x3eaae50e	0.3337788
149	0x3f0e14fe	0.5550078
150	0xbe26b08e	-0.16278288
151	0x3ed4ea9f	0.41585252
152	0xbd984b79	-0.0743627
153	0x3ed69bae	0.4191565
154	0x3e883b94	0.26607955
155	0xbd2a74eb	-0.041615408
156	0xbd7689bd	-0.06018995
157	0x3e857609	0.26066616
158	0xbe09f177	-0.13471018
159	0xbcd4f18e	-0.025994089
160	0x3e581632	0.21102217
161	0xbe920a10	-0.28523302
162	0xbdf19d8e	-0.11797629
163	0x3e9cd4e2	0.30631167
164	0x3e068bc7	0.13139258
165	0x3ede1c84	0.4338113
166	0x3e348337	0.1762818
167	0x3e987b7a	0.29781705
168	0x3cacc1d8	0.021088526
169	0xbe1f860e	-0.15578482
170	0xbe1f9d58	-0.15587366
171	0x3e9f66b3	0.3113304
172	0x3d6a7c00	0.057247162
173	0xbe11dd80	-0.14244652
174	0xbeeece16	-0.46641606
175	0xbe9241b1	-0.28565744
176	0x3ed9457e	0.4243583
177	0x3d599d7d	0.05312871
178	0x3e96f20a	0.29481536
179	0xbeea7fb1	-0.45800546
180	0x3f07596e	0.52870834
181	0x3e41ec65	0.18937834
182	0x3ef2843e	0.47366518
183	0xbe222363	-0.15833811
184	0x3ee963ca	0.45583946
185	0xbec9ef30	-0.39440298
186	0x3dd13ae8	0.102163136
187	0x3dc5f6a0	0.096661806
188	0xbe82d76a	-0.25554973
189	0xbd47cbd2	-0.048778363
190	0x3e531c88	0.20616353
191	0xbe86deb7	-0.26341793
192	0x3d8b16a5	0.067914285
193	0x3e24558b	0.16048257
194	0xbf0356aa	-0.51304114
195	0xbe5e2eec	-0.21697587
196	0x3ec329f5	0.38117948
197	0xbecfecad	-0.40610257
198	0x3cbd3c08	0.023099914
199	0x3ed23539	0.4105623
200	0xbe2185ef	-0.15773748
201	0x3ebe2a15	0.3714148
202	0x3e976ec0	0.29576683
203	0xbe93b2d7	-0.2884738
204	0x3effe622	0.49980265
205	0x3eed49a8	0.46345258
206	0x3eeb6d1e	0.45981687
207	0x3e1c1451	0.15242125
208	0x3ec13715	0.37737337
209	0xbe78a4e8	-0.24281657
210	0xbca00d65	-0.019537637
211	0x3ee3fef3	0.44530448
212	0xbef91e55	-0.48655954
213	0x3dd4a88c	0.1038371
214	0x3f046f22	0.51732075
215	0x3c46bb32	0.012129592
216	0xbe80a34b	-0.25124583
217	0xbed95e94	-0.4245497
218	0xbe96bdbc	-0.2944163
219	0xbe042d53	-0.12907915
220	0x3d80b321	0.06284166
221	0x3e709e8d	0.23497982
222	0xbea89972	-0.3292957
223	0xbefbd8bd	-0.49188796
224	0xbd232b26	-0.03983607
225	0xbe32c333	-0.17457275
226	0xbe7bc6fc	-0.24587625
227	0xbecad36d	-0.3961443
228	0x3d02d51a	0.03194151
229	0x3b191484	0.0023358176
230	0x3e1dc06b	0.15405433
231	0x3c64975c	0.0139521025
232	0xbe8ee464	-0.27908623
233	0xbe8d5c7d	-0.27609625
234	0x3d052901	0.032509807
235	0xbe2598de	-0.16171595
236	0xbdcfeb6f	-0.10152327
237	0xbe226a70	-0.15860915
238	0xbe276a1e	-0.16349074
239	0x3f078672	0.5293952
240	0x3db6b31c	0.08920881
241	0x3ee52195	0.44752184
242	0x3eac2047	0.33618376
243	0x3eeb7c49	0.4599326
244	0xbd9bdde7	-0.07610684
245	0xbef6f326	-0.48232383
246	0xbea4f37f	-0.32217023
247	0xbd931e07	-0.07183462
248	0x3e0ce2fb	0.13758461
249	0xbe0a1621	-0.13485004
250	0xbf07b7e6	-0.5301498
251	0xbea2f642	-0.31828505
252	0x3ef29d9b	0.47385868
253	0xbeadbc80	-0.33932877
254	0xbec20da9	-0.37901047
255	0x3ecc471c	0.39898002

network.2.weight f4 [256, 256]
0	0xbcf3e71c	-0.029773287
1	0xbb48c7e0	-0.0030636713
2	0x3d63a06a	0.055572905
3	0x3d5f8baa	0.054576553
4	0x3d539017	0.051651087
5	0xbd33e65e	-0.043920867
6	0x3b89e61b	0.004208339
7	0xbb19df00	-0.0023478866
8	0x3a97b2c0	0.0011573657
9	0x3d6ee58c	0.05832438
10	0x3d11b24c	0.035570428
11	0xbd5ec878	-0.0543904
12	0x3d7bf6f2	0.061514802
13	0x3d6e41ec	0.058168337
14	0xbd451cb2	-0.04812307
15	0xbd5bb751	-0.05364162
16	0x3d45ae95	0.048262198
17	0xbcb1b281	-0.021691563
18	0xbd527435	-0.051380355
19	0x3cd60028	0.026123121
20	0x3b9795a0	0.004625991
21	0x3d1a8fac	0.037734672
22	0xbd34095a	-0.04395423
23	0x3d69e808	0.057106048
24	0xbcbaa42a	-0.022783358
25	0xbd18251e	-0.037144773
26	0x3cbc3724	0.022975512
27	0xbd506e18	-0.050886244
28	0xbd52cdd7	-0.051465835
29	0xbc5ee18e	-0.013603581
30	0x3b6839d2	0.0035434854
31	0xbcc6c901	-0.024265768
32	0xbbd477b9	-0.0064839986
33	0xbd76ade3	-0.060224425
34	0x3d2cda59	0.04220042
35	0xbbf55dd5	-0.0074879923
36	0x3bfe6fc9	0.0077647907
37	0x3d1a75b0	0.03770989
38	0x3d08a856	0.033363663
39	0x3d4bb86b	0.04973642
40	0x3d119e46	0.035551332
41	0x3c8622d0	0.016374022
42	0xbd214b10	-0.039378226
43	0x3d357356	0.044299446
44	0xbc67f6bd	-0.014157948
45	0x3cd16dd4	0.025565065
46	0x3d757486	0.05992558
47	0xbd1988f0	-0.03748411
48	0xbc0bba4e	-0.008528305
49	0xbd33a332	-0.043856807
50	0xbbd658c2	-0.0065413425
51	0xbc8e9e0f	-0.017409353
52	0xbd399cca	-0.04531554
53	0xbca8a38c	-0.020585798
54	0x3cb37d6c	0.021910392
55	0xbd41bba2	-0.04729808
56	0xbc12c88e	-0.008958949
57	0x3d33078f	0.04370838
58	0x3d57ecca	0.052716054
59	0xbd73214a	-0.05935792
60	0x3d1bbd60	0.0380224
61	0x3c15ed58	0.009150825
62	0x3c979713	0.018504655
63	0x3d185e98	0.037199587
64	0x3d4c818c	0.049928233
65	0xbd066b89	-0.032817397
66	0x3d4bef0c	0.04978852
67	0xbb958ea9	-0.0045641256
68	0x3c0d9a10	0.008642688
69	0x3ca35f58	0.019942924
70	0xbd6a9d39	-0.057278845
71	0xbce4653c	-0.027880304
72	0xbd824993	-0.063616894
73	0x3c36b378	0.011151187
74	0x3cfc6e08	0.030814186
75	0xbcc74fb0	-0.02432999
76	0x3c88d884	0.016704805
77	0xbc4d371f	-0.012525349
78	0xbca948cd	-0.020664597
79	0xbd3a03d7	-0.04541382
80	0x3cbad068	0.022804454
81	0xbbbb5f90	-0.005718179
82	0x3cd00ef4	0.025397755
83	0x3d70a422	0.05875028
84	0xbd50883b	-0.05091117
85	0xbb78c1a0	-0.0037957206
86	0xbc93ac60	-0.01802653
87	0x3d184b56	0.03718122
88	0x3d5ecfaa	0.054397263
89	0x3d4a0a9f	0.049326535
90	0xbb36c060	-0.002788566
91	0x3c967af8	0.018369183
92	0xbcc878ea	-0.024471719
93	0xbd811f3e	-0.06304787
94	0xbd7f24f2	-0.062291093
95	0x3cb997a4	0.022655316
96	0xbd3e2aca	-0.046427526
97	0xbd1b6863	-0.037941348
98	0x3c95d0b8	0.018288001
99	0xbd648d92	-0.055799074
100	0x3d1a7f81	0.037719253
101	0x3d2c415b	0.042054515
102	0xbb8026c0	-0.0039108694
103	0x3c83eed6	0.016105097
104	0x3d231d54	0.03982289
105	0x3cc11d38	0.023573503
106	0xbd7cafa9	-0.06169096
107	0x3cbd9f2c	0.023147188
108	0xbd832082	-0.06402685
109	0xbd23e9bb	-0.040017825
110	0xbd82e8fa	-0.06392093
111	0xbd118057	-0.035522785
112	0xba0c4380	-0.00053506345
113	0x3b12c474	0.0022394927
114	0x3b02c8b8	0.0019956063
115	0x3b33fea0	0.0027465
116	0xbd58de90	-0.052946627
117	0x3c22a47b	0.0099269105
118	0xbc991e4c	-0.018691204
119	0x3d18ecba	0.037335135
120	0x3d52c605	0.051458377
121	0xbb826e80	-0.003980458
122	0x3ba7a1e0	0.0051157326
123	0xbd12df56	-0.03585752
124	0x3cd8c224	0.026459761
125	0x3d555ba2	0.05208934
126	0x3c838130	0.016052812
127	0x3c7f3f22	0.015579017
128	0xbb356f00	-0.002768457
129	0xbd3022d3	-0.04300196
130	0xbc20a190	-0.0098041445
131	0xbd2899f2	-0.04116244
132	0x3d43c829	0.04779831
133	0xbd18ff02	-0.03735257
134	0xbd48b7ff	-0.049003597
135	0x3c72317a	0.014782304
136	0xbcc31318	-0.023812816
137	0xbc2ddec0	-0.01061219
138	0x3d7b40a4	0.061340943
139	0x3cf46133	0.029831504
140	0x3d3d8c38	0.0462763
141	0xbc8438dc	-0.016140394
142	0xbc99ae9c	-0.018760018
143	0xbd2a7c00	-0.041622162
144	0x3c623c10	0.013808265
145	0x3d27cd7d	0.040967453
146	0xbd245297	-0.040117826
147	0xbcc1c91c	-0.023655467
148	0x3d43943b	0.047748785
149	0xbcd561a8	-0.026047543
150	0x3cf04a44	0.029332288
151	0x3d36f57a	0.0446677
152	0x3d225f10	0.03964144
153	0xbd14faba	-0.036371924
154	0xbb2398b4	-0.0024962844
155	0x3d34c098	0.044128984
156	0x3d6ab0a0	0.05729735
157	0x3d0f3e53	0.034971546
158	0xbd1991e8	-0.037492663
159	0x3d1ab452	0.037769623
160	0xbcadd59b	-0.02122002
161	0x3d72c5ca	0.059270658
162	0xbd1e8138	-0.03869745
163	0x3d6dc9cd	0.05805378
164	0x3d53b6d8	0.051688045
165	0xbbd8a255	-0.0066111484
166	0xbcf7bdde	-0.030241903
167	0xbd67783d	-0.056511153
168	0xbc135561	-0.008992524
169	0xbd06d1bc	-0.032914862
170	0xbb94d530	-0.0045420155
171	0xbd64186d	-0.055687357
172	0x3c8d056d	0.017214501
173	0x3d3014ac	0.042988464
174	0x3c4ef020	0.012630492
175	0x3c8d2aac	0.017232262
176	0x3d2a052a	0.04150883
177	0x3cb34b01	0.02188635
178	0xbd281b19	-0.041041467
179	0x3c8656a4	0.016398735
180	0xbc288c0f	-0.010287299
181	0xbc88790f	-0.016659288
182	0xbcc7cd78	-0.024389967
183	0x3ced9818	0.029003188
184	0xbd7479c0	-0.059686422
185	0xbd70052a	-0.058598675
186	0x3c9cc67c	0.019137613
187	0xbd660780	-0.056159496
188	0x3caaa86c	0.020832263
189	0xbcbc0124	-0.022949763
190	0x3a0b907c	0.0005323959
191	0xbcde7868	-0.027157024
192	0x3d0a8e2f	0.033827003
193	0xbca209d4	-0.019780077
194	0xbca29be4	-0.019849725
195	0x3cf57234	0.029961683
196	0xbbd7fc62	-0.0065913657
197	0x3d407704	0.046988502
198	0x3d35017c	0.04419087
199	0x397e4b79	0.00024251443
200	0xbccfaeec	-0.025351964
201	0x3c97c248	0.018525258
202	0x3d54d2c7	0.051958825
203	0xbb1e0e20	-0.0024117306
204	0x3c8a3184	0.016869314
205	0xbd213e28	-0.039365917
206	0x3cf941db	0.03042691
207	0xbc87bda8	-0.016569927
208	0xbd72002f	-0.059082206
209	0xbc3ee158	-0.011650406
210	0x3cd84338	0.02639924
211	0xbc97b93c	-0.018520944
212	0xbcd59404	-0.026071556
213	0xbc362deb	-0.011119346
214	0x3d15912f	0.03651541
215	0xbd2b3e8d	-0.0418077
216	0xbd64481e	-0.05573284
217	0xbd058664	-0.032598868
218	0xbd690854	-0.056892708
219	0x3d6324ca	0.055455007
220	0x3c159e9c	0.009132054
221	0x3c7d2cf8	0.015452616
222	0x3ca88b04	0.0205741
223	0x3c64b780	0.013959765
224	0xbbbc76e0	-0.0057514757
225	0x3cd57f10	0.026061565
226	0xbd7c4efa	-0.061598755
227	0xba4a9280	-0.00077275187
228	0xbd7588fd	-0.059945095
229	0xbc4a79f7	-0.01235818
230	0xbd6bab73	-0.057536554
231	0x3b80aab4	0.0039265994
232	0x3d727e6c	0.059202597
233	0x3d6025f2	0.054723687
234	0x3d0fba3c	0.035089716
235	0x3d20573c	0.039145693
236	0xbd644304	-0.055727974
237	0x3d47b52a	0.048756756
238	0x3d283a94	0.04107149
239	0xbc48619f	-0.012230306
240	0x3c761b84	0.015021209
241	0xbc66a31e	-0.014076976
242	0x3cb7fe7e	0.022460219
243	0x3c28658a	0.010278115
244	0x3c9282a0	0.017884552
245	0x3ce568b0	0.02800402
246	0xbd68f850	-0.056877434
247	0x3cc6114c	0.02417817
248	0xbcead767	-0.028667165
249	0xbc38fcb0	-0.011290714
250	0xbd5e9918	-0.05434522
251	0xbd3e45f0	-0.046453416
252	0x3d26955c	0.040669784
253	0x3ba281e0	0.00495933
254	0x3bbfef30	0.005857371
255	0x3bb4e3ec	0.0055203345

network.2.bias f4 [256]
0	0x3d3a5126	0.045487545
1	0x3cc1882d	0.023624504
2	0x3c97c050	0.018524319
3	0x3b3312d9	0.0027324467
4	0x3c5255e0	0.012837857
5	0xbd2eff05	-0.042723674
6	0x3d530980	0.05152273
7	0xbb5ac130	-0.003337931
8	0xbb131900	-0.002244532
9	0x3b8d4b56	0.0043119593
10	0xbd60e7d0	-0.054908574
11	0x3b9e60f0	0.004833333
12	0xbc88cb0f	-0.016698388
13	0xbd250a4a	-0.040293016
14	0x3bb064c3	0.0053831055
15	0xbc5e1874	-0.013555635
16	0xbcb24c38	-0.02176486
17	0xbcd4d3cc	-0.025979899
18	0xbd3e38c8	-0.04644087
19	0x3d3918ba	0.045189597
20	0x3c92319b	0.01784592
21	0x3d8c4a88	0.06850153
22	0xbc98f08c	-0.01866939
23	0x3d16e5be	0.036840193
24	0x3ccfd298	0.025368974
25	0xbc040780	-0.008058429
26	0x3c56ee7d	0.0131183835
27	0xba853e36	-0.0010165635
28	0xbce71af4	-0.028211094
29	0x3c9e2fbc	0.01930987
30	0xbcf5d694	-0.030009545
31	0x3cf68174	0.030091025
32	0x3d0658a9	0.032799397
33	0x3d8a042c	0.06739077
34	0xbccd902c	-0.02509316
35	0xbc8aea36	-0.016957384
36	0x3c68dd6b	0.014212946
37	0xbcba21bd	-0.022721166
38	0xbcca54b2	-0.024698589
39	0x3d0489fa	0.032358147
40	0xbc6cb8da	-0.014448369
41	0x3b9bfbc7	0.004760239
42	0x3cff5364	0.031167693
43	0x3ca68fa4	0.020332165
44	0xbae235c0	-0.001725845
45	0x3b713e2a	0.0036810734
46	0xbd0a811c	-0.033814535
47	0x3cf3aec8	0.029746428
48	0xbcc2b9e0	-0.023770273
49	0x3d6dd1e0	0.05806148
50	0x3d6bcd60	0.057568908
51	0xbd57c5e5	-0.05267896
52	0x3c7aaffb	0.015300746
53	0x3cfbf353	0.030755674
54	0x3d0721c4	0.032991186
55	0x3cbf8730	0.023379892
56	0xbd4e7eb8	-0.050413817
57	0xbd242c4e	-0.040081315
58	0xbcb7d05e	-0.022438224
59	0x3836ba30	4.3565582e-05
60	0xbb27327a	-0.0025512264
61	0x3cd74abc	0.026280753
62	0xbd6e1ed3	-0.058134865
63	0x3d0ccdd6	0.034375988
64	0x3c44cf7d	0.01201236
65	0x3c14b008	0.009075172
66	0x3bacfe1e	0.0052793166
67	0xbbab2ff9	-0.0052242246
68	0x3cf76de0	0.03020376
69	0x3c92362e	0.0178481
70	0xbd545e02	-0.051847465
71	0x3ce8401f	0.028350888
72	0xbb6ed340	-0.0036441833
73	0xbbe3774a	-0.0069417106
74	0xba3f6054	-0.0007300426
75	0xbb863868	-0.0040960796
76	0x3d3eb3de	0.046558253
77	0x3d826268	0.06366426
78	0x3c9c6a9c	0.019093804
79	0xbd31b2ea	-0.043383516
80	0x3c9412a7	0.0180753
81	0x3d1e64a5	0.0386702
82	0xbc24c900	-0.010057688
83	0xbd81d154	-0.06338754
84	0xbc9efa48	-0.019406453
85	0xbd29aaa8	-0.041422516
86	0xbc9bbfa0	-0.019012272
87	0x3c9e7c09	0.019346254
88	0xbc2fb2bf	-0.010723769
89	0x3d61515e	0.05500924
90	0x3cfc6ee0	0.030814588
91	0xbb61339b	-0.0034363035
92	0x3d8227d8	0.06355256
93	0x3c2ea8e8	0.010660388
94	0x3d2a2b08	0.041544944
95	0xbc7a13f6	-0.015263548
96	0xbd7e6cc0	-0.06211543
97	0x3d2fc00a	0.042907752
98	0xbc3ba43c	-0.011452731
99	0x3bfb3670	0.0076664016
100	0x3c3098ba	0.0107786
101	0xbc0cee57	-0.0086017465
102	0x3c753c0a	0.014967928
103	0x3baa1a6d	0.0051911385
104	0xbd3bf9ce	-0.04589253
105	0x3d46d8f7	0.048546758
106	0xbc8a3660	-0.016871631
107	0xbd5a1ac2	-0.053248174
108	0x3d824748	0.06361252
109	0x3d067d73	0.03283448
110	0x3bafd473	0.005365902
111	0x3bc7103d	0.006074934
112	0x3aca45bf	0.0015432163
113	0x3c9f12ec	0.019418202
114	0xbc8ff0a0	-0.017570794
115	0x3c8df760	0.017329872
116	0x3d1f3120	0.03886521
117	0xba8df000	-0.0010828972
118	0xbcb69dee	-0.022292104
119	0xbc263f40	-0.010146916
120	0x3b82c02f	0.003990195
121	0xbd3a8dac	-0.045545265
122	0xbb6840a1	-0.0035438912
123	0xbcfdb540	-0.030970216
124	0xbd16fb70	-0.036860883
125	0xbcef53b3	-0.029214716
126	0xbc899d39	-0.016798602
127	0x3cdb3bc1	0.026761891
128	0x3ce9320e	0.02846625
129	0x3c49fd10	0.012328401
130	0x3d518671	0.051153604
131	0x3b020251	0.0019837806
132	0xbce172ae	-0.027520504
133	0xbcca0e6c	-0.02466508
134	0xbac1fa80	-0.0014799386
135	0xbd25d784	-0.040488735
136	0x3cedc988	0.029026762
137	0x3d5c3ca4	0.05376877
138	0x3b9f8956	0.0048686666
139	0xbd6c1bec	-0.057643816
140	0xbd06580a	-0.032798804
141	0xbd8c39ef	-0.068469875
142	0x3d07988d	0.033104468
143	0x3d11b12c	0.035569355
144	0x3d33a608	0.04385951
145	0xbc406051	-0.011741714
146	0xbd31d673	-0.043417405
147	0x3c3c8d7b	0.011508341
148	0x3c91f91f	0.017818986
149	0x3ca332fe	0.019921776
150	0x3d4d401d	0.05010997
151	0xbd3432e2	-0.043993838
152	0xbbf618a0	-0.0075102597
153	0xbd16de30	-0.03683299
154	0x3d69aa82	0.057047375
155	0xbcd145a4	-0.025545903
156	0x3bc0dd60	0.005885765
157	0xbd5aec73	-0.05344815
158	0xbbd3ba1e	-0.006461396
159	0xbd531e3d	-0.05154251
160	0x3cbd8386	0.023134004
161	0x3b4e7d80	0.003150791
162	0x3c734908	0.014848955
163	0x3c41e9e9	0.011835554
164	0x3c5405d5	0.012940844
165	0xbd20a17e	-0.03921651
166	0xbc9010fb	-0.017586222
167	0x3c36e639	0.011163288
168	0x3d80cc9a	0.06289025
169	0x3cf090a2	0.029365841
170	0x3cc812bf	0.024423001
171	0x3d7fb56a	0.06242887
172	0xbd2e1206	-0.042497657
173	0xbd546842	-0.05185724
174	0x3a0e6284	0.000543155
175	0xbca60f81	-0.020271065
176	0x3bb0ae50	0.0053918734
177	0x3c044a78	0.008074395
178	0x3d023330	0.031787097
179	0x3c855bbc	0.016279094
180	0x3d8bac8b	0.06820019
181	0x3d18d8a4	0.03731598
182	0xbbb8e4b0	-0.005642496
183	0xbd24eb94	-0.040263727
184	0x3c8fa77c	0.017535917
185	0xbcfa8ff4	-0.03058622
186	0xbcd66840	-0.026172757
187	0xb99d4771	-0.00029998602
188	0x3d42e43a	0.047580935
189	0xbc34fa90	-0.011046067
190	0x3d83e26d	0.06439672
191	0xbbd47f8e	-0.0064849323
192	0x3bdf81e0	0.006820902
193	0x3c54c169	0.012985566
194	0xbb88bec1	-0.0041731303
195	0x3d0947ae	0.033515625
196	0xbcbdfb9c	-0.023191266
197	0x3a99e300	0.0011740625
198	0x3b154b00	0.00227803
199	0x3caf9aee	0.02143618
200	0x3d31ebf8	0.043437928
201	0xbd2fd0c6	-0.04292371
202	0xbd7fcfaa	-0.062453903
203	0x3ca8e888	0.020618692
204	0x3c9a974c	0.018870972
205	0xbc0a470b	-0.0084397895
206	0x3c1de0d6	0.009636125
207	0x3d199b55	0.03750165
208	0xbd38cb41	-0.045115713
209	0xbc4be190	-0.012443915
210	0x3cc2e4da	0.023790766
211	0xbd4ae795	-0.04953726
212	0xbd599273	-0.05311818
213	0x3bd94b19	0.006631267
214	0xbd5efb82	-0.054439075
215	0xbc862a8b	-0.016377708
216	0x3ce161f9	0.027512537
217	0x3c4f3968	0.012647964
218	0x3d10eb2c	0.035380527
219	0x3cbbd7d4	0.022930063
220	0x3d456934	0.048196033
221	0x3d90e882	0.07075597
222	0xbd0f9aca	-0.035059728
223	0xbca61f78	-0.020278677
224	0xbcc27ff6	-0.023742657
225	0xbd32e404	-0.043674484
226	0x3cd7d148	0.02634491
227	0xbce46a0c	-0.027882598
228	0xbbe97ee8	-0.007125724
229	0xbcb63852	-0.022243652
230	0xbcb93c5b	-0.022611788
231	0xbcad6960	-0.02116841
232	0x3d4c2e2f	0.04984873
233	0xbbc1c160	-0.0059129447
234	0x3d3b8a7c	0.045786366
235	0xbc971022	-0.01844031
236	0xbbebbe6c	-0.007194331
237	0xba64e600	-0.00087317824
238	0xbd69dd99	-0.057096098
239	0xbc7561f6	-0.014976969
240	0xbcbcd1e4	-0.023049302
241	0x3cf66620	0.030077994
242	0xbd5cf7ca	-0.053947248
243	0xbd398f62	-0.045302756
244	0x3d33e7f5	0.043922383
245	0xbb06f820	-0.0020594671
246	0xbce4877c	-0.027896635
247	0xbc8b6069	-0.017013745
248	0x3cb1b470	0.021692485
249	0xbca6e3e2	-0.020372335
250	0xbd0f057f	-0.03491735
251	0xbd69a4dd	-0.05704199
252	0xbcfc6a51	-0.030812414
253	0xbc382312	-0.01123883
254	0x3c5cce20	0.013476878
255	0x3d105df3	0.035245847

network.4.weight f4 [1, 256]
0	0x3cea360b	0.028590223
1	0x3be1a628	0.0068862624
2	0x3c9c6721	0.019092144
3	0xbd5f9bc7	-0.05459192
4	0xbd22cea6	-0.039747857
5	0xbd4bc074	-0.049744084
6	0x3d7c1f5a	0.061553337
7	0xbd53f9bf	-0.05175185
8	0x3c8b3400	0.016992569
9	0x3bebfc49	0.0072017056
10	0x3d69e504	0.057103172
11	0xbb35bce0	-0.0027730986
12	0x3ce39d5c	0.027784996
13	0xbcaca62c	-0.02107533
14	0xbcfb2a2e	-0.030659761
15	0x3d475ad7	0.048670616
16	0x3cd8df9e	0.026473816
17	0xbd466a24	-0.048441067
18	0x3ca00b60	0.019536674
19	0xbd0c79dc	-0.0342959
20	0x3d6468eb	0.05576412
21	0xbd487743	-0.04894186
22	0xbc8df138	-0.017326936
23	0x3ced9dfc	0.029005997
24	0xbce9963a	-0.028514016
25	0xbd3faf02	-0.04679776
26	0x3d4ee4ef	0.050511297
27	0xbd001018	-0.03126535
28	0xbcab6b45	-0.020925174
29	0xbcc6d178	-0.024269804
30	0x3d2066ee	0.03916066
31	0x3cb646a2	0.022250477
32	0x3d79bcb3	0.060970973
33	0xbca49cd2	-0.020094309
34	0xbd4ae3dc	-0.04953371
35	0x3d674884	0.05646564
36	0x3d3c9e5f	0.046049472
37	0x3cd12d75	0.02553437
38	0xbc299c7c	-0.01035225
39	0xbd2a0c5c	-0.041515693
40	0x3a080116	0.000518815
41	0x3d2272c4	0.03966023
42	0x3c64bef8	0.013961546
43	0x3d3853ee	0.045001917
44	0x3a451a80	0.00075189024
45	0xbd11640d	-0.035495806
46	0xbd53a99a	-0.051675417
47	0xbc3b6b00	-0.011439085
48	0xbcb2c0a4	-0.021820374
49	0xbc980f20	-0.0185619
50	0x3cbe41a8	0.023224667
51	0x3cec0c4c	0.028814457
52	0x3d0c8c6e	0.03431361
53	0xbce3a2fa	-0.027787674
54	0xbb841885	-0.0040312433
55	0x3d29bde1	0.04144085
56	0x3d2fa2c3	0.04287983
57	0xbc91204d	-0.017715598
58	0xbca93d33	-0.020659065
59	0xbd6eb788	-0.058280498
60	0xbd835b84	-0.064139396
61	0xbcc6f5fc	-0.024287216
62	0x3cc7171e	0.024303015
63	0x3d079c5a	0.033108093
64	0x3d02ad88	0.031903774
65	0xbd381e27	-0.04495063
66	0x3ccb1b7f	0.024793385
67	0x3ce97192	0.028496537
68	0xbd3e56ce	-0.046469502
69	0xbd41c5e3	-0.04730786
70	0x3d4b65c8	0.049657613
71	0x3d100313	0.03515918
72	0xbd286662	-0.041113265
73	0xbd247d90	-0.04015881
74	0xbd1e1b73	-0.038600396
75	0xbd15bc0a	-0.03655628
76	0x3cc8ded0	0.024520308
77	0x3ce55171	0.027992936
78	0xbce5c2a8	-0.02804692
79	0xbc01e7b0	-0.007928774
80	0x3d4d3201	0.050096516
81	0x3c852de4	0.016257234
82	0x3c8d84f8	0.017275319
83	0x3c99b8c0	0.018764853
84	0xbc6aab38	-0.014323048
85	0x3cc5f0a0	0.02416259
86	0xbd4b2d98	-0.04960403
87	0xbd562516	-0.05228146
88	0x3d554fab	0.05207793
89	0x3b73d53e	0.003720596
90	0x3c21dd6a	0.009879449
91	0xbc9fc2b9	-0.01950203
92	0xbd158a4c	-0.036508843
93	0x3d6d338e	0.057910495
94	0x3ce62174	0.028092124
95	0x3d1db225	0.03849997
96	0xbd499b02	-0.049220093
97	0xbd55f638	-0.052236766
98	0x3cedeadc	0.029042654
99	0xbc405150	-0.011738136
100	0xbc856dac	-0.016287647
101	0x3d33c86b	0.043892305
102	0x3d0933f5	0.033496816
103	0x3d3cbad3	0.046076607
104	0xbcdb18e4	-0.026745267
105	0x3ca8475f	0.020541845
106	0xbc7f3db7	-0.015578679
107	0x3ce90734	0.028445818
108	0xbd7562ef	-0.059908804
109	0x3d6001f4	0.054689363
110	0xbd422095	-0.047394354
111	0x3ca399a7	0.019970728
112	0x3b8c7a24	0.0042870212
113	0xbc44acaf	-0.012004062
114	0x3d6bf0c8	0.057602674
115	0x3c86aa3c	0.016438596
116	0x3c97dc16	0.018537562
117	0xbceb2228	-0.02870281
118	0x3cbc48e9	0.022983985
119	0x3c10afd3	0.008830982
120	0x3a808d60	0.0009807758
121	0xbd2dc988	-0.042428523
122	0x3cfba451	0.030718
123	0x3ca9530c	0.020669483
124	0xbd765977	-0.060143914
125	0xbcdfccb1	-0.027319284
126	0xbd862876	-0.06550686
127	0xbd53e908	-0.051735908
128	0xbd7589ed	-0.05994599
129	0x3d73bcf0	0.059506357
130	0xbce5a2f8	-0.028031811
131	0x3bdb454e	0.0066916114
132	0xbd77bfd5	-0.06048568
133	0x3d259c25	0.040432114
134	0x3d44a4d2	0.048008747
135	0x3b921e20	0.0044591576
136	0x3c0c4678	0.008561723
137	0xbd4340f6	-0.047669373
138	0xbc8231ec	-0.015892945
139	0xbb8c1690	-0.0042751506
140	0xbd8a9e89	-0.067685194
141	0x3c079516	0.008275291
142	0xbd6262b7	-0.055269923
143	0x3d39668d	0.045263816
144	0xbd5b58e1	-0.05355156
145	0xbd810a94	-0.06300846
146	0x3b823846	0.0039739935
147	0xbc0e59a4	-0.008688364
148	0xbd867ec8	-0.0656715
149	0x3ba038da	0.0048895897
150	0x3cf582d4	0.02996961
151	0xbc8a1710	-0.0168567
152	0xbd7204ae	-0.059086494
153	0x3d0cab78	0.034343213
154	0xbd27c8fd	-0.04096316
155	0xbd5959a6	-0.05306401
156	0x3d0e662e	0.034765415
157	0x3ce19160	0.02753514
158	0xbc9daa45	-0.01924623
159	0xbd36f607	-0.044668224
160	0xbcd07d01	-0.025450232
161	0xbd195ee2	-0.037444003
162	0x3d43d682	0.047811992
163	0x3c843409	0.016138094
164	0xbcb5e1d7	-0.022202415
165	0xbd5483d0	-0.05188352
166	0xbb42c33d	-0.0029718422
167	0xbd8aa631	-0.0676998
168	0xbc945bf4	-0.018110253
169	0xbd4bf452	-0.04979355
170	0x3b8891bb	0.004167763
171	0xbd0ca148	-0.034333497
172	0x3d55a8b4	0.05216284
173	0xbbaf1d00	-0.0053440332
174	0x3d2fe547	0.042943265
175	0xbd0cdab6	-0.034388267
176	0xbd4eb7d6	-0.05046829
177	0x3d673ece	0.05645638
178	0xbd4b3e63	-0.049620043
179	0x3c5a4725	0.013322626
180	0xbd132c2f	-0.03593081
181	0x3d3aac19	0.04557428
182	0xbcb36d88	-0.021902815
183	0x3d336934	0.0438015
184	0xbd453f54	-0.048156098
185	0x3d12902b	0.03578202
186	0xbcc879a8	-0.024472073
187	0x3c15fd77	0.009154669
188	0x3d5d240e	0.053989463
189	0xb9c55b00	-0.00037642568
190	0xbd2b0060	-0.041748405
191	0x3d4755e7	0.048665907
192	0xbd6f09f4	-0.0583591
193	0xbd00860f	-0.03137785
194	0xbd5925ef	-0.053014692
195	0xbd466dd6	-0.04844459
196	0xbd15d680	-0.036581516
197	0x3c533e10	0.012893215
198	0xbc10d1c0	-0.008839071
199	0xbc6d2ee7	-0.014476514
200	0x3cdf6a93	0.027272498
201	0x3d4dd7b0	0.050254524
202	0x3d0c0f9f	0.034194585
203	0xbd1841a2	-0.037171967
204	0x3d6eba86	0.05828335
205	0xbd5926ae	-0.053015403
206	0x3c6a841e	0.014313726
207	0x3c9282f4	0.017884709
208	0x3c5c5ca2	0.01344982
209	0x3d3f5dbe	0.04672026
210	0xbd10ac57	-0.035320606
211	0xbcaed20d	-0.021340394
212	0xbd706bde	-0.05869662
213	0xbd58d34e	-0.05293589
214	0x3c0f9020	0.008762389
215	0x3d7793f1	0.060443822
216	0xbc174a0b	-0.009233962
217	0x3ce9fb54	0.028562225
218	0x3c925486	0.01786257
219	0xbd1f2d20	-0.038861394
220	0x3b956c50	0.004560031
221	0xbc0ebc4a	-0.008711884
222	0x3d23749f	0.03990614
223	0xbc0869e0	-0.008326024
224	0x3cc7b649	0.024378913
225	0x3ce5aea2	0.028037373
226	0x3ca87c74	0.020567156
227	0xbd43319e	-0.04765474
228	0xbd451777	-0.04811808
229	0x3d6f58cb	0.05843429
230	0xbd669698	-0.05629596
231	0x3d51f1ce	0.051255994
232	0xbd8cf35a	-0.06882353
233	0xba4baa80	-0.0007769242
234	0xbcb4a308	-0.022050396
235	0xbd7873e3	-0.060657393
236	0xbb695af2	-0.0035607186
237	0x3d1d2a46	0.038370393
238	0x3d2cca5b	0.04218517
239	0x3d2aa32b	0.041659515
240	0x3d680cb6	0.056652747
241	0x3bb67777	0.0055684405
242	0xbcff7547	-0.031183852
243	0xbc853774	-0.016261794
244	0xbd2f3178	-0.042771786
245	0xbd1546ac	-0.03644435
246	0x3c88ae20	0.016684592
247	0x3cc9c3a5	0.024629423
248	0xbcc740b4	-0.024322845
249	0xbd41067e	-0.047125332
250	0x3c97e95a	0.018543888
251	0x3c895485	0.016763935
252	0xbd323552	-0.04350788
253	0x3d39b611	0.045339648
254	0x3acc87c0	0.0015604421
255	0x3d0f8834	0.035042003
