runs/ppo_policy.pt (torch, 273529 bytes, 6 tensors)

encoder.0.weight f4 [256, 3]
0	0x3ee38967	0.44440767
1	0x3ef6e3b4	0.482206
2	0xbe0a80e2	-0.13525727
3	0x3f0800a4	0.5312598
4	0xbe009d8f	-0.12560104
5	0x3dee999a	0.11650391
6	0xbe8fea7d	-0.28108588
7	0x3ead9a4b	0.3390678
8	0x3f024b24	0.50895905
9	0xbed8dce9	-0.4235604
10	0x3f0077f9	0.50183064
11	0x3ddd4cb6	0.10805647
12	0x3edbe259	0.42946127
13	0x3da617b5	0.081099905
14	0x3e8e8952	0.27839142
15	0xbda6f235	-0.08151666
16	0x3ee3e05d	0.44507113
17	0x3daec56f	0.08533751
18	0xbe89ffdb	-0.26953015
19	0x3e16b295	0.14716561
20	0xbe8831fe	-0.2660064
21	0xbd8aaa3c	-0.06770751
22	0xbe701f9e	-0.23449561
23	0x3ec4183c	0.3829974
24	0xbee95728	-0.45574307
25	0xbe8846b5	-0.26616445
26	0xbe26f11c	-0.16302913
27	0xbeb1bcf7	-0.3471448
28	0x3d5f3321	0.05449212
29	0xbf11fb0a	-0.5702368
30	0x3f06147e	0.5237502
31	0xbef9e86e	-0.48810142
32	0x3ee436c0	0.4457302
33	0x3dbd52cb	0.09244307
34	0xbe43b1a6	-0.19110736
35	0x3eb6ab07	0.35677359
36	0x3db0c2e2	0.08630921
37	0x3eecf505	0.46280685
38	0x3d8142d5	0.06311575
39	0xbe3a7363	-0.18208079
40	0x3e1ed8fb	0.15512459
41	0xbe2052b6	-0.15656552
42	0x3e7bb863	0.24582057
43	0x3f04afe5	0.51830894
44	0x3eaae057	0.33374283
45	0xbe813acb	-0.25240168
46	0x3eaaa430	0.3332839
47	0x3dd39094	0.103303105
48	0x3e98b048	0.29821992
49	0xbeb199f4	-0.3468777
50	0xbf124f64	-0.5715239
51	0xbe646b3e	-0.22306535
52	0xbee2bc09	-0.44284084
53	0x3ef28dd5	0.47373834
54	0x3e2696b0	0.1626842
55	0x3e71304e	0.23553583
56	0x3e3af9c8	0.18259346
57	0xbc39d5b8	-0.011342458
58	0x3ee6ad3e	0.45054048
59	0xbed207ba	-0.4102152
60	0x3d14e5f7	0.036352124
61	0xbec9c2db	-0.39406475
62	0x3e364cbd	0.17802711
63	0xbe4c2419	-0.19935645
64	0x3e349d9b	0.17638247
65	0xbdf65883	-0.12028601
66	0x3ef5d063	0.4801055
67	0xbeae8fbc	-0.34094036
68	0xbeb04c18	-0.34433055
69	0xbeb03b16	-0.3442008
70	0x3f04fa49	0.51944405
71	0x3e450531	0.19240262
72	0x3f0d908f	0.55298704
73	0xbef544ee	-0.47904152
74	0xbf1299d7	-0.5726599
75	0xbee744f3	-0.45169792
76	0xbec6d961	-0.38837722
77	0x3e6f7662	0.23385003
78	0x3e54062f	0.20705484
79	0x3ef5c99f	0.48005387
80	0xbe98a835	-0.29815832
81	0xbec9842b	-0.3935865
82	0x3e9cd736	0.30632943
83	0xbe6ef7e8	-0.23336756
84	0x3eb49e49	0.35277012
85	0xbe09e02c	-0.13464421
86	0x3ea91943	0.33027086
87	0xbee5aca1	-0.44858268
88	0xbe952d18	-0.29135966
89	0x3e343eb7	0.17602049
90	0x3df3b257	0.1189925
91	0xbe19de50	-0.15026212
92	0x3eb0333b	0.34414086
93	0x3ec7f7e5	0.39056316
94	0xbed75960	-0.42060375
95	0xbe9dd02f	-0.30822894
96	0x3f070a33	0.5274994
97	0xbe48adab	-0.19597499
98	0xbe5197ab	-0.20468013
99	0xbf0f0319	-0.558641
100	0xbea94881	-0.3306313
101	0x3e13af83	0.14422421
102	0xbd9c120c	-0.0762063
103	0xbed69306	-0.41909045
104	0x3c5de251	0.013542728
105	0xbec9ebd2	-0.3943773
106	0xbefac9f4	-0.48982203
107	0xbea2c718	-0.3179252
108	0xbf015b99	-0.5053039
109	0xbebc38ce	-0.3676209
110	0x3f13be6d	0.5771244
111	0x3dd901b7	0.1059603
112	0x3e330697	0.17482983
113	0xbf09da30	-0.5384855
114	0xbec22500	-0.37918854
115	0xbe44c95d	-0.19217439
116	0x3db8e532	0.090280905
117	0xbf020dc8	-0.5080228
118	0xbe7ebc2a	-0.24876466
119	0xbeb0f7eb	-0.34564146
120	0xbad90ed4	-0.0016560205
121	0xbe5f52ee	-0.21808979
122	0xbd23df5a	-0.040007927
123	0xbec84f42	-0.3912297
124	0xbecae694	-0.39629042
125	0xbeac749d	-0.3368272
126	0xbe4a5e58	-0.19762552
127	0xbee95066	-0.45569152
128	0x3ef7dac0	0.4840908
129	0xbde626e3	-0.11237886
130	0x3eff76af	0.49895236
131	0x3e38359c	0.179892
132	0xbefa50e6	-0.48889846
133	0x3ecc9163	0.3995467
134	0xbe22aade	-0.15885493
135	0xbe629ffb	-0.2213134
136	0xbef55f21	-0.4792414
137	0xbf12f048	-0.5739789
138	0x3e299d38	0.1656388
139	0xbe00ae7a	-0.12566558
140	0x3e662ba1	0.2247758
141	0xbef29742	-0.47381026
142	0x3edb76eb	0.42864165
143	0xbed8fd1d	-0.4238061
144	0xbdd07a94	-0.1017963
145	0x3df2a983	0.11848738
146	0x3e989b13	0.29805812
147	0x3eec9779	0.46209314
148	0x3f059d8f	0.5219354
149	0xbeea63f3	-0.4577938
150	0x3e101f80	0.14074516
151	0xbe817a58	-0.25288653
152	0xbd819315	-0.06326882
153	0xbedd4194	-0.43214095
154	0x3f06a05d	0.52588445
155	0xbed8f54d	-0.4237465
156	0x3e9ce9d5	0.3064715
157	0x3e4da006	0.20080575
158	0x3e401dba	0.1876134
159	0xbe9f2ae7	-0.3108742
160	0x3f06ab4e	0.5260514
161	0x3e01eafc	0.12687296
162	0x3d9e77ba	0.0773768
163	0xbf01756f	-0.50569814
164	0x3e782e87	0.24236499
165	0xbdb162e8	-0.08661443
166	0xbe876c4e	-0.26449817
167	0x3efde850	0.49591303
168	0x3e099eb9	0.13439454
169	0xbea0a558	-0.31376147
170	0xbe959dc9	-0.29221943
171	0xbcdd75e1	-0.027033748
172	0x3ea5542c	0.3229078
173	0xbe1712c3	-0.14753251
174	0xbeaa2391	-0.3323026
175	0xbe4d6753	-0.20058946
176	0xbedcd67b	-0.43132386
177	0x3e532f9c	0.2062363
178	0x3ee4faf9	0.44722727
179	0xbf0b257e	-0.54354084
180	0x3e063bc4	0.13108736
181	0x3e972b44	0.29525197
182	0x3dd66801	0.10469056
183	0xbe528b13	-0.20560865
184	0x3e9a49b0	0.30134344
185	0x3e9b57ec	0.30340517
186	0x3e59741a	0.21235695
187	0xbdd7012a	-0.10498269
188	0xbe1c8d62	-0.15288308
189	0x3d700296	0.058596216
190	0xbdd75e3f	-0.10516023
191	0xbe302e22	-0.17205098
192	0x3ebe54d4	0.37174094
193	0x3eff6b8c	0.4988674
194	0xbd6a1c91	-0.05715615
195	0xbe045e8c	-0.12926692
196	0x3c0a086f	0.008424862
197	0xbd0d331b	-0.034472566
198	0x3e108ac4	0.14115435
199	0x3e2811fe	0.16413113
200	0xbf063deb	-0.5243823
201	0xbe596bf9	-0.21232595
202	0x3ef95067	0.48694155
203	0x3e664eb8	0.22490966
204	0xbceb3dd1	-0.028716
205	0xbeb23890	-0.3480878
206	0xbeb4da04	-0.35322583
207	0xbf046555	-0.5171712
208	0xbe40b60e	-0.18819448
209	0x3e47a729	0.1949736
210	0x3ebb3620	0.36564732
211	0x3e87352a	0.26407748
212	0xbf02a5fe	-0.51034534
213	0xbeb1c3c7	-0.3471968
214	0xbdba9ac1	-0.09111548
215	0x3f0ef9d3	0.5584995
216	0x3da2640f	0.07929241
217	0xbe1d6e75	-0.15374167
218	0x3e749759	0.2388586
219	0xbe612e01	-0.21990205
220	0xbebf54b8	-0.37369323
221	0x3ed7c1d1	0.42140058
222	0xbe86694f	-0.2625222
223	0xbded08d9	-0.11573953
224	0xbf1308a2	-0.5743505
225	0x3ec3993e	0.38202852
226	0x3eddb83d	0.43304625
227	0x3e5776d6	0.21041426
228	0xbece1dd8	-0.40257144
229	0xbf11df12	-0.56981003
230	0xbef01533	-0.46891174
231	0x3ede5616	0.43425053
232	0x3e8fd35d	0.28090945
233	0x3ef8c064	0.48584282
234	0x3e9c309a	0.3050583
235	0x3e184b20	0.14872408
236	0xbbb94397	-0.0056538093
237	0xbee0cee1	-0.43907836
238	0xbefd43c4	-0.49465764
239	0xbf0a3eff	-0.54002374
240	0x3e6ed6e5	0.23324163
241	0xbe92b868	-0.28656316
242	0xbdedf6b7	-0.11619323
243	0xbeaa057a	-0.33207303
244	0xbdd7106d	-0.1050118
245	0xbed00e52	-0.40635926
246	0xbec126e0	-0.37724972
247	0x3e441c12	0.19151333
248	0xbe2fb459	-0.17158641
249	0x3eb6bab6	0.35689324
250	0xbe3d2ed9	-0.18474902
251	0xbed8d84d	-0.42352524
252	0xbdd09fad	-0.10186706
253	0xbe8f4aff	-0.27986905
254	0xbe34dfec	-0.17663544
255	0xbf0cb4e0	-0.54963493

encoder.0.bias f4 [256]
0	0xbebe2097	-0.3713424
1	0x3f111ca6	0.5668434
2	0x3e625406	0.22102365
3	0x3e6f511c	0.23370785
4	0xbeaf8f98	-0.3428924
5	0xbe819763	-0.2531081
6	0xbdb27d7c	-0.087153405
7	0xbdd83d5a	-0.10558577
8	0xbeca8fcc	-0.39562833
9	0x3d4ad271	0.0495171
10	0x3d6d6b39	0.057963584
11	0xbd9c5588	-0.07633501
12	0x3da0f435	0.07859079
13	0xbe6a533c	-0.22883314
14	0x3e189f30	0.14904475
15	0x3e5cd41b	0.21565287
16	0xbe993918	-0.29926372
17	0xbf128e9a	-0.5724884
18	0x3e99b5af	0.30021426
19	0x3e0ac0a0	0.13550043
20	0xbe96571e	-0.2936334
21	0x3f0dc0d9	0.5537239
22	0xbe854a9a	-0.2603348
23	0x3ec6f2be	0.38857073
24	0x3e938ea9	0.2881978
25	0xbef7d613	-0.48405513
26	0x3ebeaebe	0.37242693
27	0xbf07e64e	-0.5308579
28	0xbea2c8cf	-0.3179383
29	0xbdc5203d	-0.096252896
30	0xbec8d1c6	-0.39222544
31	0x3f0fff41	0.5624886
32	0xbdea937c	-0.11453912
33	0x3e64d875	0.22348197
34	0xbf03f94f	-0.5155229
35	0x3eaa8650	0.33305597
36	0xbe37bcc8	-0.17943108
37	0xbee26fdb	-0.44225964
38	0x3da52344	0.08063367
39	0x3e8e6359	0.2781017
40	0x3effafbc	0.49938762
41	0xbeb48d66	-0.35264128
42	0xbe9177b9	-0.28411654
43	0x3de0f4e8	0.10984212
44	0x3e1f1402	0.15534976
45	0x3e612f06	0.21990594
46	0x3ea2cd28	0.31797147
47	0xbe060eed	-0.13091631
48	0x3ea21d8d	0.3166317
49	0x3ed85102	0.42249304
50	0xbe1f8055	-0.15576299
51	0x3ecea020	0.4035654
52	0x3e907250	0.28212214
53	0x3f02dc19	0.5111709
54	0xbea664ce	-0.32498783
55	0xbe91f8ba	-0.28510076
56	0xbe256248	-0.16150773
57	0x3d00fbbd	0.031490076
58	0x3eb04800	0.34429932
59	0xbea91fbc	-0.33032024
60	0x3e94572e	0.28972763
61	0xbe53e0a2	-0.2069116
62	0x3eb1c9eb	0.34724364
63	0xbceed824	-0.029155798
64	0xbf00642a	-0.5015284
65	0xbea2a78e	-0.3176846
66	0xbed57966	-0.41694182
67	0x3e9051fe	0.28187555
68	0xbec6375e	-0.38714117
69	0xbd45087e	-0.048103802
70	0x3dfb9189	0.12283618
71	0xbea21b78	-0.31661582
72	0x3e29b7ae	0.16573974
73	0xbf105127	-0.5637383
74	0xbed381b6	-0.413099
75	0xbf070d17	-0.5275435
76	0xbe32d39e	-0.17463538
77	0xbe54c625	-0.20778711
78	0x3da3d7ca	0.08000143
79	0xbddaa535	-0.10676042
80	0x3e89538d	0.26821557
81	0x3f076355	0.52885944
82	0x3e513e95	0.2043403
83	0xbe680556	-0.22658285
84	0xbf0a663c	-0.5406225
85	0x3e54e725	0.207913
86	0xbe935cc7	-0.2878172
87	0x3e979679	0.2960699
88	0x3ec4263a	0.38310415
89	0x3e630e30	0.22173381
90	0x3f09827c	0.5371473
91	0x3f0c110a	0.547135
92	0x3df9dbc4	0.1220012
93	0xbed76330	-0.42067862
94	0x3f0376ba	0.5135304
95	0xbe8c4335	-0.27395025
96	0xbe8b3163	-0.27186117
97	0x3ef49b79	0.47774866
98	0x3ee4d9e5	0.4469749
99	0x3e2fd89d	0.17172475
100	0x3d1a13ea	0.037616648
101	0xbef8a6c5	-0.48564735
102	0xbd757a8e	-0.05993133
103	0x3f0d5f6b	0.5522372
104	0x3e100d2e	0.14067528
105	0x3d3c01a6	0.04590001
106	0xbdf58782	-0.11988737
107	0xbe4e33d2	-0.20136955
108	0x3eae8f5e	0.34093755
109	0x3d0948a4	0.03351654
110	0x3ebf94ac	0.37418115
111	0xbdd14918	-0.1021902
112	0x3e7f1d54	0.24913532
113	0x3e733073	0.2374895
114	0x3db9c36e	0.090704784
115	0x3eb7d435	0.3590409
116	0x3eb6f2fa	0.3573225
117	0x3f075a74	0.52872396
118	0x3ee378ed	0.44428197
119	0xbe172b69	-0.14762653
120	0xbefa4385	-0.48879638
121	0x3de7c644	0.11317113
122	0xbb6a7d64	-0.0035780305
123	0xbe1a33a3	-0.1505876
124	0xbdc6002d	-0.09668002
125	0x3ce11630	0.0274764
126	0x3ed5a212	0.41725212
127	0x3e380ebc	0.1797437
128	0xbe51ef23	-0.2050138
129	0xbe731e73	-0.23742084
130	0xbe1266ba	-0.14297
131	0xbe6175ee	-0.22017643
132	0x3f046156	0.5171102
133	0x3e9af657	0.30266067
134	0x3f054525	0.5205863
135	0xbaa96a2f	-0.0012925322
136	0x3dddb032	0.10824622
137	0x3e4dc597	0.20094906
138	0xbf0a862e	-0.5411099
139	0x3d4ba180	0.049714565
140	0xbd1e2eea	-0.03861896
141	0xbea66a12	-0.325028
142	0xbee55f64	-0.4479934
143	0x3f02c65b	0.51083916
144	0x3eef0d64	0.46689904
145	0x3e8801df	0.26563928
146	0x3f0d0e83	0.5510027
147	0xbe702960	-0.23453283
148	0xbdc8c24a	-0.09802683
149	0x3e615a0c	0.22007006
150	0xbdc35db9	-0.095393606
151	0xbddfdfa8	-0.10931331
152	0xbef45596	-0.47721547
153	0x3e21cc23	0.15800528
154	0xbeb1dcd0	-0.3473878
155	0x3c8f5ac8	0.017499343
156	0x3f0fc32b	0.5615718
157	0xbe35010f	-0.17676185
158	0xbe3a57ed	-0.18197604
159	0x3eb0014a	0.34375983
160	0xbe59d709	-0.21273436
161	0xbd3ea473	-0.04654355
162	0x3f07a97b	0.5299298
163	0xbe75dea6	-0.24010715
164	0xbed1e4bc	-0.40994823
165	0xbea56ebc	-0.32311046
166	0xbe23e8d3	-0.16006784
167	0xbe8c436f	-0.27395198
168	0xbe97040c	-0.29495275
169	0x3e6e3930	0.23264003
170	0x3dc00a73	0.09376993
171	0xbe3d38f8	-0.18478763
172	0xbee5ead0	-0.4490571
173	0xbe3a25b2	-0.18178442
174	0xbe79832a	-0.24366441
175	0xbe4063cd	-0.18788071
176	0xbf061c96	-0.5238737
177	0x3dfd28a5	0.12361268
178	0xbed5a345	-0.41726127
179	0xbee63734	-0.44963992
180	0xbef1848a	-0.47171432
181	0x3e777209	0.24164595
182	0xbeb20e73	-0.3477665
183	0xbe740563	-0.2383018
184	0x3ee6c501	0.45072177
185	0x3e9f143f	0.31070134
186	0x3eaa3fe0	0.33251858
187	0xbf0b197e	-0.54335773
188	0xbed3fa22	-0.41401774
189	0xbe5f2fe1	-0.21795608
190	0x3ef28c29	0.4737256
191	0x3d6e1078	0.058121175
192	0xbedd14b5	-0.4317986
193	0x3b2f83da	0.002678147
194	0xbee40061	-0.4453154
195	0xbe05846c	-0.13038796
196	0xbe1f62da	-0.15565053
197	0x3eff7ab8	0.49898314
198	0x3e352de0	0.17693281
199	0xbdce2dc2	-0.10067321
200	0x3dbc3fd9	0.091918655
201	0xbe2aa936	-0.16666111
202	0x3e69a54c	0.22816962
203	0x3e6999ac	0.22812527
204	0x3e225938	0.15854347
205	0xbe667050	-0.22503781
206	0x3efce19e	0.49390882
207	0xbdaab479	-0.08335204
208	0xbe662aa7	-0.22477208
209	0x3eb91b8c	0.3615383
210	0x3ef02411	0.46902516
211	0x3f12c7d8	0.5733619
212	0x3e2ba5a7	0.1676241
213	0xbe4989ea	-0.19681516
214	0x3e96738c	0.2938503
215	0x3efcb040	0.49353218
216	0xbf10f80b	-0.56628484
217	0xbd927c4e	-0.071526155
218	0xbec802d0	-0.39064646
219	0x3ddd98fe	0.108201966
220	0x3e740dd6	0.23833403
221	0xbdf87f46	-0.121336505
222	0xbd44a9eb	-0.04801361
223	0x3e8465da	0.25858957
224	0xbdc73915	-0.097276844
225	0xbef507b0	-0.47857428
226	0x3ee9a318	0.45632243
227	0xbe933ca5	-0.28757206
228	0xbd81e5ee	-0.06342684
229	0x3d62c077	0.05535933
230	0xbd0bc1b3	-0.034120273
231	0xbf0a318f	-0.5398187
232	0x3e8685a4	0.26273835
233	0xbe86d920	-0.26337528
234	0xbe995148	-0.29944825
235	0x3e0ba2e2	0.13636354
236	0xbe9a43a0	-0.3012972
237	0xbe87d609	-0.26530483
238	0xbe44bd49	-0.19212832
239	0xbe5e1a64	-0.21689755
240	0xbe76e8f9	-0.2411231
241	0xbe22297c	-0.15836138
242	0x3e19d5ca	0.1502296
243	0xbeef3520	-0.4672022
244	0xbeb2ec41	-0.34945872
245	0x3b1c7cb5	0.0023878042
246	0x3d98f871	0.074692614
247	0x3ea3a2ed	0.3196024
248	0xbecfa510	-0.4055562
249	0x3e3bc7fd	0.18338008
250	0x3ea7493a	0.32673055
251	0x3ea26fa4	0.317258
252	0xbf09aa68	-0.53775644
253	0xbe5fe91a	-0.21866265
254	0xbefe1728	-0.49627042
255	0xbeb801bf	-0.35938832

encoder.2.weight f4 [256, 256]
0	0x3cf3e55b	0.029772451
1	0xbc37cc1b	-0.011218096
2	0x3cd31dd2	0.025771055
3	0xbd197911	-0.037468974
4	0x3b932480	0.004490435
5	0xbd1ad7f8	-0.03780362
6	0x3cfff1d8	0.03124325
7	0xbcdff024	-0.027336188
8	0xbc806380	-0.015672445
9	0xbd6162ee	-0.055025987
10	0xbb02fc5e	-0.0019986848
11	0x3d5f2a18	0.054483503
12	0x3ce89c1c	0.028394751
13	0xbd089624	-0.03334631
14	0xba97e944	-0.0011589904
15	0xbbf96463	-0.007610844
16	0xbd6876f7	-0.05675408
17	0x3d48ba32	0.049005695
18	0xba4a95b8	-0.00077279983
19	0x3c41d68d	0.011830938
20	0xbccec2ac	-0.025239311
21	0xbcf5a7db	-0.029987266
22	0x3bc2a7f2	0.005940431
23	0x3cb725ad	0.022356832
24	0x3c45078b	0.012025724
25	0xbcf6c180	-0.030121565
26	0x3d71310e	0.058884673
27	0xbc16bcc0	-0.009200275
28	0xbd32b10e	-0.043625884
29	0xbcef7808	-0.02923204
30	0x3d6f5e25	0.058439393
31	0xbaef168f	-0.0018240976
32	0xbc493bae	-0.012282295
33	0xbcdafb5a	-0.026731182
34	0xbc8637ec	-0.016384088
35	0xbd5ac6b9	-0.053412173
36	0xbd4b7060	-0.049667716
37	0x3d093415	0.033496935
38	0x3d585684	0.052816883
39	0x3d712559	0.058873508
40	0xbd3e3f55	-0.046447117
41	0x3d0a7604	0.033803955
42	0xbd1e7498	-0.03868541
43	0x3d1596ec	0.036520883
44	0x3d35a237	0.044344153
45	0x3d4311bb	0.04762433
46	0x3d3120d0	0.043244183
47	0x3d202592	0.03909833
48	0x39e3b089	0.00043428343
49	0x3cdb7e46	0.02679361
50	0xbceb3955	-0.028713861
51	0x3cd8e457	0.026476068
52	0xbcb44f52	-0.02201048
53	0xbae2e6e7	-0.0017311246
54	0xbd6b7a4e	-0.057489686
55	0xbc85e000	-0.016342163
56	0xbd20a10b	-0.039216083
57	0xbcb4a237	-0.022050006
58	0xbd26821f	-0.040651437
59	0xbd7f4364	-0.062320128
60	0x3b17f6cb	0.0023187872
61	0x3d262380	0.0405612
62	0x3d61c86e	0.055122785
63	0x3d0465f0	0.032323778
64	0xbd1e8256	-0.038698517
65	0xbd7d2fbe	-0.06181311
66	0x3ca655e8	0.020304635
67	0x3d0ca38e	0.034335665
68	0xbd5bc772	-0.053657003
69	0x3cb79898	0.02241163
70	0x3d4ffdd6	0.050779186
71	0x3b781f20	0.0037860349
72	0xbd21341a	-0.03935633
73	0x3d51e36a	0.05124227
74	0x3cdaa1d4	0.026688494
75	0x3d0fd459	0.03511462
76	0xbd2d210c	-0.042267844
77	0x3d03b1d6	0.03215202
78	0xbd375777	-0.044761147
79	0x3d7d4f80	0.061843395
80	0xbce818cd	-0.028332138
81	0x3d176e0d	0.036970187
82	0x3c412823	0.0117893545
83	0x3c4477ba	0.011991436
84	0xbc1d0918	-0.009584688
85	0x3ccc06af	0.02490553
86	0xbd010265	-0.031496424
87	0xbd747891	-0.059685294
88	0xbcd347e2	-0.025791112
89	0x3d435208	0.047685653
90	0xbc950c52	-0.018194351
91	0x3c91bae3	0.01778931
92	0xbcc35d88	-0.02384831
93	0x3d4009c8	0.046884328
94	0x3d14745e	0.03624379
95	0x3cb4be34	0.022063352
96	0xbd14d6a6	-0.036337517
97	0xbd53b801	-0.05168915
98	0x3a220f12	0.0006182055
99	0xbd196ab0	-0.03745526
100	0x3d4b2393	0.049594473
101	0xbd760282	-0.060060985
102	0x3ce4cbec	0.027929269
103	0x3d793ca5	0.06084885
104	0x3cfacb0e	0.030614402
105	0x3c9dd4df	0.019266544
106	0xbd764f3e	-0.060134165
107	0x3d763ea2	0.060118325
108	0xbc3b86b2	-0.011445688
109	0xbd7181dd	-0.058961738
110	0x3d74de06	0.05978205
111	0xbcd05938	-0.025433168
112	0xbbadd14b	-0.0053044907
113	0x3d66f9f5	0.05639072
114	0xbd347234	-0.044054225
115	0xbd38126c	-0.044939443
116	0x3c1a28c5	0.009409134
117	0xbc2640a7	-0.01014725
118	0x3c5f3341	0.01362306
119	0xbd56b564	-0.05241908
120	0x3af4fec0	0.0018691644
121	0xbcf22c0e	-0.029562023
122	0xbd0c8376	-0.03430506
123	0xbd6a672e	-0.057227306
124	0x3d07bc64	0.033138648
125	0x3c3b2e27	0.011424578
126	0xbd6050d0	-0.05476457
127	0x3d47edb3	0.048810672
128	0x3c9a6e0c	0.018851303
129	0x3c3e0448	0.0115977
130	0xbd164e92	-0.036696024
131	0x3b93115c	0.0044881534
132	0x3d738fd0	0.059463322
133	0x3d2c8a73	0.042124223
134	0xbd4d4c97	-0.05012187
135	0x3d6e70ec	0.05821316
136	0x3b8923bf	0.0041851695
137	0x3cf00eae	0.029303875
138	0x3d2cfe14	0.042234495
139	0x3d51ca11	0.051218096
140	0xbd478f98	-0.048720926
141	0x3d4a6ac7	0.049418237
142	0xbd2dde68	-0.04244843
143	0x3b493e34	0.0030707242
144	0xbd359782	-0.044333942
145	0xbc80416b	-0.015656194
146	0xbb7bd879	-0.0038428588
147	0xbc420df4	-0.011844147
148	0xbc5f1c76	-0.013617625
149	0x3b3e0711	0.002899591
150	0x3d7c85f0	0.06165117
151	0x3cfb7c52	0.030698929
152	0x3d0f396c	0.03496687
153	0x3cc64e77	0.024207337
154	0x3d2e79e5	0.042596716
155	0xbb605dcd	-0.0034235597
156	0x3b488e0f	0.0030602252
157	0x3c0ca2a8	0.008583702
158	0xbd5f43f2	-0.054508157
159	0xbd513e1d	-0.051084626
160	0x3b3f0a9f	0.0029150618
161	0xbcef51f4	-0.029213883
162	0xbb3e3f2c	-0.0029029353
163	0xbc96f20e	-0.018425968
164	0x3bd984cb	0.0066381446
165	0x3d268ebe	0.040663473
166	0xbca9ccf8	-0.02072762
167	0x3d4d0534	0.05005379
168	0x3d374635	0.04474469
169	0xbd47a7ba	-0.04874394
170	0xbd4c4869	-0.049873743
171	0xbd4f1f88	-0.05056718
172	0xbd21f86c	-0.039543554
173	0xbcc74f38	-0.024329767
174	0xbb9a26e0	-0.0047043413
175	0xbc790760	-0.015199512
176	0xbd0df9ab	-0.03466193
177	0xbca8d43d	-0.020609016
178	0xbcedcdff	-0.02902889
179	0x3d7b2552	0.06131489
180	0xbcbdc310	-0.023164302
181	0xbd3e759b	-0.046498876
182	0x3ca04ac5	0.019566903
183	0xbb6c9760	-0.0036100969
184	0x3d40e734	0.047095492
185	0x3d1cb29d	0.038256276
186	0x3d6394b3	0.055561733
187	0xbd55e493	-0.05221994
188	0x3d2492b2	0.040178962
189	0x3d56d85a	0.052452423
190	0xbd014a9b	-0.03156529
191	0x3d62aeff	0.05534267
192	0x3d3fe89a	0.046852686
193	0xba01170b	-0.0004924393
194	0x3cdd853f	0.027041076
195	0xbcdc5231	-0.02689466
196	0xbd6bf3a5	-0.057605404
197	0x3c63beb9	0.013900452
198	0x3c9271f8	0.01787661
199	0xbd274fa4	-0.040847436
200	0x3cf2d8f3	0.029644465
201	0xbd5aae56	-0.053388916
202	0x3d590f22	0.052992947
203	0x3d6f8c03	0.058483135
204	0x3c84a631	0.016192527
205	0xbd209f2c	-0.039214298
206	0x3cf321fb	0.02967929
207	0x3c2e8178	0.010650985
208	0x3c8b38f0	0.016994923
209	0x3c997c2a	0.018735964
210	0x3d3fd718	0.04683599
211	0xbceb5803	-0.02872849
212	0xbc723534	-0.014783192
213	0x3c8ba01c	0.01704412
214	0x3b9dcc8a	0.0048156427
215	0x3d4bc0f0	0.049744546
216	0xbd067608	-0.032827407
217	0xbb1529a0	-0.0022760406
218	0x3c0cb296	0.0085875
219	0xbc8e9429	-0.017404633
220	0x3d2b7445	0.04185893
221	0x3b38d952	0.0028205705
222	0xbd7c12fd	-0.061541546
223	0xbbf6c800	-0.007531166
224	0xbd035d93	-0.03207166
225	0xb9b380fa	-0.00034237636
226	0xbc032faa	-0.0080069695
227	0xbd854c63	-0.0650871
228	0xbc3a9948	-0.011389084
229	0xbbdc7689	-0.0067279977
230	0xbcb5c1fe	-0.02218723
231	0x3d54ddde	0.0519694
232	0xbc7fef94	-0.015621085
233	0x3d132942	0.03592802
234	0x3c7da9b8	0.015482359
235	0xbd5b05d9	-0.053472374
236	0x3c70a030	0.014686629
237	0x3d3d515a	0.04622016
238	0xbd37d4c5	-0.044880647
239	0xbd2578d4	-0.040398434
240	0x3d7a95da	0.061178066
241	0x3d3d72f0	0.04625219
242	0xbd16dacf	-0.036829766
243	0x3d1a0bf6	0.037609063
244	0xbc0300a0	-0.0079957545
245	0xbd82dacc	-0.063893884
246	0x3b2c99ec	0.0026336862
247	0x3c982dcf	0.01857653
248	0xbc999478	-0.018747553
249	0x3cabd86f	0.020977227
250	0xbd622b3e	-0.05521702
251	0x3d2beb3f	0.041972395
252	0x3d5a3fb0	0.053283393
253	0x3cf907af	0.030399172
254	0x3c2d8f20	0.010593206
255	0x3c68242e	0.014168782

encoder.2.bias f4 [256]
0	0x3d689fc0	0.056792974
1	0xbd307031	-0.043075744
2	0xbc01088e	-0.007875575
3	0x3d14704d	0.03623991
4	0xbb02f3e0	-0.0019981787
5	0x3c23ba70	0.009993181
6	0x3d6f1417	0.05836877
7	0xbae757d7	-0.001765008
8	0x3d0e468a	0.03473524
9	0xbd48c94a	-0.04902009
10	0xbd3adaef	-0.045618948
11	0xbd66eae0	-0.056376338
12	0x3c249637	0.01004558
13	0x3d139ad6	0.036036335
14	0x3ce27341	0.027642848
15	0x3cf8cb27	0.030370308
16	0x3bccb22e	0.0062468266
17	0x3d107ca4	0.035275117
18	0x3ac756ff	0.0015208422
19	0xbcda2af8	-0.026631817
20	0xbbfe0870	-0.0077524707
21	0xbc8bc7ae	-0.017062988
22	0xbd63add0	-0.055585682
23	0x3d0b7996	0.0340515
24	0xbc827c9e	-0.015928563
25	0x3c851366	0.016244601
26	0xbd121fde	-0.035674922
27	0xbd2335bc	-0.039846167
28	0x3d0e583c	0.034752116
29	0x3c9eee2c	0.019400679
30	0x39d7304a	0.00041043974
31	0x3c167ed2	0.00918551
32	0xbcfb3588	-0.030665174
33	0xbbfbbd74	-0.0076824967
34	0x3cf8638d	0.030320907
35	0xbd7e922e	-0.062151127
36	0xbc2c6410	-0.010521904
37	0x3d4cddcc	0.05001621
38	0xbb7f41e0	-0.0038949177
39	0xbd47f941	-0.04882169
40	0x3d727854	0.059196785
41	0x3d57bfb8	0.05267307
42	0xbd31e3cc	-0.043430135
43	0xba88b440	-0.0010429695
44	0xbd49d378	-0.049273938
45	0x3d31ea43	0.0434363
46	0x3c252388	0.010079272
47	0x3d5fa305	0.054598827
48	0x3cd356a8	0.025798157
49	0x3a8a979e	0.001057375
50	0x3d4e8f2f	0.05042952
51	0xbd358dd6	-0.04432472
52	0xbd377f5c	-0.044799194
53	0x3c771056	0.015079578
54	0xbcde9617	-0.027171178
55	0x3d25ecfa	0.0405092
56	0x3c254efe	0.010089634
57	0x3ca72098	0.020401284
58	0x3d434655	0.047674496
59	0x3be286b0	0.0069130287
60	0xbd394dea	-0.04524032
61	0xbd47d05a	-0.048782684
62	0xbd2c1ad7	-0.042017784
63	0x3c9b4595	0.018954078
64	0x3be6d850	0.0070448294
65	0xbd6651bc	-0.05623029
66	0xbd4a414c	-0.04937868
67	0x3d1c2618	0.038122267
68	0xbd67c3cc	-0.05658321
69	0x3c89e25c	0.01683157
70	0x3bc72d3b	0.00607839
71	0xbcaa1d18	-0.020765826
72	0xbd5d9b65	-0.054103274
73	0xbc9e79eb	-0.019345244
74	0xbd24a1ff	-0.040193554
75	0x3b871832	0.0041227574
76	0x3cc535cb	0.024073502
77	0xbcada953	-0.021198904
78	0xbc7bd0df	-0.015369623
79	0x3d148196	0.036256395
80	0xbd0243bf	-0.03180289
81	0xbc290b7d	-0.01031768
82	0x3c0fac82	0.008769156
83	0x3d532239	0.05154631
84	0xbcb800e4	-0.022461362
85	0xbcca0c7e	-0.02466416
86	0x3c8fbf34	0.017547227
87	0xbcc19c8c	-0.023634218
88	0xbc6d6400	-0.014489174
89	0xbd711354	-0.058856323
90	0xbd1c7d03	-0.038205158
91	0xbd33b0a0	-0.043869615
92	0xbc4b2b92	-0.012400525
93	0x3d326a94	0.043558672
94	0xbd5d4256	-0.05401834
95	0x3d13d634	0.036092952
96	0xbd7b588e	-0.06136375
97	0x3d7e73f5	0.062122304
98	0x3a94b783	0.0011346195
99	0xbd5f10ce	-0.054459386
100	0xbbe5e9c2	-0.0070163915
101	0xbd0c9f1a	-0.03433142
102	0xbd5b087c	-0.05347489
103	0xbd298a74	-0.041391805
104	0xbd2f3271	-0.042772714
105	0x3d6ad429	0.057331238
106	0xbc5bfde0	-0.013427228
107	0xbcf45685	-0.029826412
108	0x3c20362d	0.0097785415
109	0xbc8830f4	-0.016624905
110	0x3d58541f	0.0528146
111	0x3cd37a5e	0.025815185
112	0x3d40bd81	0.047055725
113	0x3c8ce9df	0.017201362
114	0xbc239f4d	-0.009986711
115	0xbcac9128	-0.02106531
116	0x3d2fbaa2	0.042902596
117	0x3c5fdd5d	0.013663617
118	0xbcdc95a9	-0.026926832
119	0x3d208329	0.039187584
120	0x3cc45cae	0.023969974
121	0xbd291ccd	-0.041287232
122	0xbd38fdbc	-0.045163855
123	0x3cd2a403	0.025712973
124	0xbb8aa870	-0.004231505
125	0x3c568c5e	0.01309499
126	0xbb9d7d70	-0.004806213
127	0xbd658431	-0.05603427
128	0xbd011676	-0.03151556
129	0xbd87c9d5	-0.06630293
130	0x3cd71bdf	0.026258407
131	0x3c8553b6	0.016275268
132	0xbd1cc966	-0.038278006
133	0xbd2ee7e4	-0.042701617
134	0x3d0bc555	0.034123737
135	0x3c327ce4	0.010894034
136	0xbd538e96	-0.051649652
137	0x3c2cf318	0.010556005
138	0xbbb50b92	-0.005525061
139	0x3c7c20de	0.0153886955
140	0x3c6dd740	0.014516652
141	0xbaf376bd	-0.0018574815
142	0xbd5dd201	-0.054155353
143	0xbc28e2eb	-0.010308008
144	0x3b9c9303	0.0047782674
145	0x3d36f422	0.044666417
146	0x3d60788e	0.05480247
147	0x3d56ce72	0.052442975
148	0xbd724360	-0.059146285
149	0xbce85481	-0.028360607
150	0xbb1b35c0	-0.002368316
151	0xbd190834	-0.03736134
152	0xbce8b233	-0.028405285
153	0xbb7334a8	-0.0037110243
154	0xbc785787	-0.015157587
155	0x3d5c0df3	0.05372424
156	0xbd6544e9	-0.05597392
157	0x3b9706eb	0.004608979
158	0xbd1dd0e3	-0.038529288
159	0xbce5413c	-0.027985208
160	0x3ce138cf	0.027492909
161	0x3cf37ee2	0.029723588
162	0xbd791e46	-0.060819887
163	0xbd6503e4	-0.055911914
164	0xbd24476e	-0.040107183
165	0xbcf2e628	-0.029650763
166	0x3d4defd6	0.050277553
167	0xbd3f8d4f	-0.04676562
168	0x3d66503d	0.056228865
169	0x3a9d2f21	0.0011992195
170	0xbced98fc	-0.029003613
171	0xbcf8c339	-0.030366527
172	0x3d44dcd4	0.04806216
173	0x3cb18e42	0.02167428
174	0x3d4170ae	0.0472266
175	0xbccc97b0	-0.024974674
176	0x3d6f95d6	0.058492504
177	0xbc57466f	-0.013139351
178	0x3bee3834	0.0072698835
179	0x3cb716af	0.022349684
180	0xbd1993ac	-0.037494346
181	0x3d1405f2	0.036138482
182	0xbc080f50	-0.008304432
183	0xbd4ed05a	-0.05049167
184	0x3d02a403	0.031894695
185	0xbd6be3a8	-0.057590157
186	0xbd7d96ae	-0.061911277
187	0x3ce67b58	0.028134987
188	0xbd4ee5f4	-0.05051227
189	0xbd0d3bb7	-0.034480777
190	0x3d0524b3	0.032505702
191	0x3d5bc7a0	0.053657174
192	0xbd319d67	-0.043363
193	0xbb9b0edf	-0.0047319974
194	0xba390100	-0.0007057339
195	0x3c4da40b	0.012551318
196	0x3d697cd4	0.05700381
197	0xbd8777e6	-0.06614666
198	0xbc24af10	-0.010051504
199	0x3cb97be8	0.02264209
200	0xbc5e92f0	-0.013584837
201	0x3c649216	0.013950845
202	0xbc8315f0	-0.016001672
203	0xbc180b6a	-0.009280065
204	0xbbb21930	-0.0054351315
205	0x3d42bf0b	0.047545474
206	0x3d1cacee	0.038250856
207	0xbd1d8dde	-0.038465373
208	0xbd269f68	-0.040679365
209	0x3d4ca568	0.04996243
210	0xbce8f717	-0.028438134
211	0x3d4d6eb7	0.050154414
212	0xbcf6c1fe	-0.0301218
213	0xbd1636c4	-0.036673322
214	0xbb37bea0	-0.0028037205
215	0x3ca43380	0.020044088
216	0x3d2bc399	0.041934583
217	0x3ce05ec6	0.027388941
218	0x3d4e19c8	0.050317556
219	0xbd663b53	-0.05620892
220	0x3d142c6a	0.03617517
221	0x3ca067dc	0.019580774
222	0xbd062837	-0.032753196
223	0xbb039cf0	-0.0020082556
224	0xbd389275	-0.045061547
225	0x3ca36812	0.019947086
226	0xbc735150	-0.014850929
227	0xbcd72a2e	-0.02626523
228	0x3c9a192e	0.018810835
229	0x3d73df84	0.059539333
230	0xbd53b619	-0.051687334
231	0xbd4be1b0	-0.04977578
232	0x3d74f791	0.05980641
233	0x3d11e834	0.035621837
234	0xbbb3924b	-0.005480086
235	0x3c60d890	0.0137235075
236	0x3d551307	0.0520201
237	0xbd0597d5	-0.0326155
238	0xbd4ca056	-0.049957596
239	0xbd3252c8	-0.043535978
240	0x3bc74947	0.0060817334
241	0xbc0db9b9	-0.008650237
242	0xbcb26295	-0.021775523
243	0x3c184108	0.009292848
244	0x3d2352fc	0.039874062
245	0x3d3a6cff	0.045514103
246	0xbc3dc7ad	-0.011583251
247	0xbd6ad1e2	-0.057329066
248	0x3d2598df	0.040428992
249	0xbc37a298	-0.011208199
250	0xbd5c1f49	-0.053740773
251	0x3d0f6dde	0.035016887
252	0xbd133605	-0.03594019
253	0x3d4a2cb2	0.04935903
254	0x3cd5f4d7	0.026117725
255	0xbbd8bca1	-0.006614283

policy_head.weight f4 [3, 256]
0	0x3ceeadd6	0.029135626
1	0x3d4cb8f7	0.049981084
2	0xbd15b03a	-0.036545016
3	0xbd6df059	-0.05809054
4	0xbd4f52d2	-0.050616093
5	0xbcf5de9e	-0.030013379
6	0xbd7aa86b	-0.061195772
7	0xbb39e4ea	-0.0028365203
8	0x3c4fae9e	0.012675909
9	0x3d6bda14	0.057581022
10	0x3c9dcb67	0.019262029
11	0x3d457360	0.048205733
12	0xbc0cd644	-0.008596007
13	0xbcab55d8	-0.020914957
14	0x3d637e8d	0.05554061
15	0xbd1e5cce	-0.038662724
16	0x3d838a2d	0.06422839
17	0xbd50d0b4	-0.050980285
18	0xbcc75d92	-0.02433661
19	0xbd4188f2	-0.04724974
20	0xbb58cc40	-0.0033080727
21	0xbd4562f1	-0.04819006
22	0xbcde3fdb	-0.027130058
23	0xbd54354c	-0.05180864
24	0x3d6dd9c7	0.058069017
25	0xbd7e4554	-0.062077835
26	0xbcedace8	-0.029013112
27	0x3d179dbe	0.03701567
28	0x3d1ae2c3	0.037813913
29	0xbcd74e5d	-0.026282484
30	0xbbdf27ff	-0.006810188
31	0xbc8839b1	-0.016629072
32	0x3cc4a8c4	0.024006255
33	0xbc73b943	-0.014875713
34	0xbc4895be	-0.012242733
35	0xbd29dbce	-0.041469388
36	0xbd44effa	-0.048080422
37	0x3d0e1ea5	0.034697194
38	0x3d262e28	0.04057136
39	0xbd7f1345	-0.062274236
40	0x3b232360	0.0024892911
41	0x3d49d0c4	0.04927136
42	0x3c05dfb8	0.0081710145
43	0x3d0e0e3e	0.03468155
44	0x3bfcd660	0.007715985
45	0x3d243d12	0.040097304
46	0xbc0823eb	-0.008309345
47	0x3cafb3f6	0.021448117
48	0x3c88f464	0.016718097
49	0xbd1b05fa	-0.037847497
50	0xbd302ea5	-0.043013234
51	0x3d4463f1	0.047946874
52	0x3cb1361e	0.02163225
53	0xbd4a1f28	-0.04934612
54	0xbd3f7ba0	-0.046748757
55	0x3d58def0	0.052946985
56	0x3d5d4a58	0.054025978
57	0xbd77e3f8	-0.060520142
58	0xbd229c6c	-0.039699957
59	0x3c3a7828	0.011381187
60	0xbd15532e	-0.03645628
61	0xbbc9b850	-0.006156005
62	0x3baa338e	0.005194134
63	0x3d70127a	0.05861137
64	0xbc4fd3b8	-0.012684755
65	0x3d0b6610	0.03403288
66	0x3bcd2890	0.006260939
67	0x3d715cd2	0.05892641
68	0x3be84c3e	0.007089167
69	0xbd6619aa	-0.05617682
70	0x3d0406b8	0.03223297
71	0xbd6a4efa	-0.057204224
72	0xb9f34519	-0.00046400054
73	0x3d0feed2	0.035139866
74	0x3ce62490	0.028093606
75	0x3d443626	0.047903202
76	0x3c94db10	0.018170863
77	0xbd481055	-0.0488437
78	0x3d2083a4	0.039188042
79	0xbd11ea86	-0.03562405
80	0xbd001e03	-0.03127862
81	0x3d16aef1	0.03678793
82	0xbd7bda2c	-0.06148736
83	0xbcb8ac35	-0.022543052
84	0xbc411ec8	-0.011787124
85	0x3d67ec7e	0.05662202
86	0xbce7ee40	-0.028311849
87	0xbcdf4ab8	-0.027257308
88	0xbc99cf0c	-0.018775485
89	0xbd1b01b1	-0.03784341
90	0x3b3de346	0.0028974577
91	0xbd4b9dff	-0.049711224
92	0xbca23286	-0.019799482
93	0x3d7319fe	0.05935096
94	0x3cc7ea06	0.024403583
95	0x3c307594	0.01077022
96	0xbd1ec72a	-0.038764156
97	0x3d6e4ef5	0.058180768
98	0x3bf4d0db	0.0074711866
99	0x3c855494	0.016275682
100	0x3cd2f8fb	0.025753489
101	0xbd16c743	-0.036811125
102	0xbc92e738	-0.01793252
103	0x3ca4a492	0.020098004
104	0x3d5819a0	0.052758813
105	0x3d471aac	0.04860942
106	0x3c500748	0.0126970485
107	0x3c4267b1	0.011865542
108	0xbc9b5a90	-0.018964082
109	0x3c74f760	0.014951557
110	0xbd5a8ba4	-0.053355828
111	0x3cf186e2	0.029483262
112	0x3d2a27c7	0.04154184
113	0xbc9daceb	-0.019247493
114	0x3c84316d	0.01613685
115	0x3c1cb830	0.009565398
116	0xbd55f1fc	-0.052232727
117	0x3ccba223	0.024857586
118	0xbce5591b	-0.02799659
119	0x3cfba8bf	0.030720113
120	0x3d628afc	0.055308327
121	0x3ce9e26f	0.028550355
122	0xbd3f8654	-0.046758965
123	0xba8d16ea	-0.0010764275
124	0x3cee92b6	0.029122692
125	0xbc7c70b4	-0.01540773
126	0x3c1979f8	0.0093674585
127	0x3d6e0e00	0.05811882
128	0xbd1b2052	-0.03787262
129	0xbcedd791	-0.029033454
130	0x3d06307b	0.03276108
131	0xbd253734	-0.04033585
132	0x3c13d000	0.009021759
133	0x3d5b75b3	0.053579044
134	0xbd11e8bb	-0.03562234
135	0xbd35e1b5	-0.044404704
136	0x3d1bead4	0.038065746
137	0xbd4de652	-0.05026848
138	0xbc03463a	-0.008012349
139	0xbc57c7b1	-0.013170169
140	0x3d58ac94	0.05289896
141	0xbbaebf3f	-0.005332857
142	0x3c9ac548	0.0188929
143	0x3d52be3a	0.051450945
144	0x3ca63a2a	0.020291407
145	0x3bbbb635	0.005728508
146	0xbc1040e5	-0.008804535
147	0xbd5bce6d	-0.05366366
148	0x3d1f976e	0.038962774
149	0xbd384d56	-0.04499563
150	0xbd5235cc	-0.051320836
151	0x3d01c6b6	0.031683646
152	0xbbc2ca17	-0.005944501
153	0xbc1b9b9d	-0.00949755
154	0xbd5be4c7	-0.053684976
155	0xbce6d03e	-0.02817547
156	0xbb07ebe6	-0.0020739972
157	0xbcad5361	-0.021157922
158	0x3c04d9eb	0.008108596
159	0x3d71af3e	0.059005015
160	0xbc8eb304	-0.017419346
161	0x3d740538	0.05957529
162	0xbcc11170	-0.023567885
163	0x3d18b69a	0.037283517
164	0xbcd3857d	-0.025820488
165	0xbb66ade0	-0.0035198852
166	0x3b816850	0.0039492026
167	0x3d265daf	0.040616687
168	0x3c30ab2f	0.010783001
169	0xbd3f114d	-0.04664736
170	0x3c924db8	0.017859325
171	0xbd61830c	-0.055056617
172	0xbd4ec89a	-0.050484277
173	0xbd33d22d	-0.04390161
174	0x3c21e310	0.009880796
175	0x3d041306	0.032244705
176	0x3c8b513f	0.017006515
177	0x3d5c50b0	0.053787887
178	0x3d100634	0.035162166
179	0xbd435246	-0.047685884
180	0x3d3d3de8	0.046201617
181	0x3cff80b2	0.031189296
182	0x3ce96e48	0.028494969
183	0x3cbd9347	0.023141516
184	0xbc9e2cb8	-0.019308433
185	0xbd26a0d6	-0.04068073
186	0xbd32fc65	-0.043697733
187	0xbcfe4e34	-0.03104315
188	0xbd3e7fc8	-0.04650858
189	0xbc11a13d	-0.00888854
190	0x3d5c32d8	0.053759426
191	0xbd49573f	-0.04915547
192	0xbc808083	-0.01568628
193	0x3cea87a7	0.028629137
194	0x3d318384	0.043338314
195	0x3c966dea	0.018362958
196	0x3c652829	0.013986626
197	0x3bdc3be7	0.006721008
198	0x3d7dba63	0.06194533
199	0xbcf151c7	-0.02945794
200	0xbcf226dc	-0.029559545
201	0x3cc3cd56	0.023901623
202	0xbbaabe45	-0.00521067
203	0xbd381652	-0.04494316
204	0xbd28eb96	-0.041240297
205	0xbd223f6b	-0.03961126
206	0x3c8d0877	0.01721595
207	0xbd61d489	-0.05513433
208	0x3cff083c	0.031131856
209	0x3d3166f7	0.043311086
210	0xbd68e3f4	-0.056858018
211	0x3d73eac5	0.059550066
212	0xbc9ec3ab	-0.019380411
213	0x3d38fbc2	0.04516197
214	0xbc0ebd10	-0.008712068
215	0x3d6342d8	0.05548367
216	0x3bfa436b	0.0076374314
217	0x3d6ad819	0.057334993
218	0xbb9c9fe3	-0.004779802
219	0xbd66ac64	-0.05631675
220	0x3d2e527a	0.042559125
221	0xbd44cd68	-0.048047453
222	0x3c1fa4a3	0.009743842
223	0x3c961d94	0.01832465
224	0xbd391191	-0.04518277
225	0xbc76d88e	-0.015066279
226	0x3d7650c6	0.060135625
227	0x3d1444f1	0.03619856
228	0xbb68455f	-0.003544174
229	0x3cbe8577	0.023257
230	0x3c304e65	0.010760878
231	0xbd300f68	-0.042983443
232	0xbd5888d4	-0.052864864
233	0x3d6df981	0.058099274
234	0xbc9c2543	-0.019060737
235	0xbd39e2ee	-0.045382433
236	0xbd2be876	-0.04196974
237	0xbd7ef1da	-0.062242366
238	0xbcc90030	-0.024536222
239	0xbbcb5700	-0.0062054396
240	0xbd78281b	-0.060585123
241	0x3bf2ce2c	0.0074098315
242	0xbc8786d5	-0.016543785
243	0xbc4a87c0	-0.012361467
244	0x3cc5b6ae	0.02413496
245	0xbd7b224c	-0.061312005
246	0x3d247648	0.040151864
247	0x3c94f808	0.018184677
248	0x3a811405	0.0009847885
249	0x3bcd0870	0.0062571093
250	0xbd86ba0c	-0.065784544
251	0x3d64d174	0.055863813
252	0xbd2af9e8	-0.041742235
253	0x3d423484	0.047413364
254	0xbca5c081	-0.020233395
255	0x3ca5317e	0.020165201

policy_head.bias f4 [3]
0	0xbcbc8787	-0.023013843
1	0x3d2f6cc2	0.04282833
2	0x3cae0fbf	0.021247743
